Ticker,model_avg_return,max_avg_return,model,model_selected_features,threshold,accuracy,precision
A,0.0,0.006748675261669871,"EnhancedDirectionPredictionModel(
  (lstm): LSTM(8, 64, num_layers=3, batch_first=True, dropout=0.2)
  (dropout): Dropout(p=0.2, inplace=False)
  (attention): Linear(in_features=64, out_features=1, bias=True)
  (fc1): Linear(in_features=64, out_features=32, bias=True)
  (fc2): Linear(in_features=32, out_features=2, bias=True)
  (leaky_relu): LeakyReLU(negative_slope=0.01)
  (softmax): Softmax(dim=1)
)","[('avg_range_60d', 'A'), ('avg_volume_60d', 'A'), ('avg_std_60d', 'A'), ('avg_return_20d', 'A'), ('delta_intraday', 'A'), ('price_to_ma_20d', 'A'), ('avg_std_5d', 'A'), ('avg_return_5d', 'A')]",0.65,0.5327102803738317,0.0
AAPL,0.0037030566447762616,0.007871286885358824,"EnhancedDirectionPredictionModel(
  (lstm): LSTM(8, 64, num_layers=3, batch_first=True, dropout=0.2)
  (dropout): Dropout(p=0.2, inplace=False)
  (attention): Linear(in_features=64, out_features=1, bias=True)
  (fc1): Linear(in_features=64, out_features=32, bias=True)
  (fc2): Linear(in_features=32, out_features=2, bias=True)
  (leaky_relu): LeakyReLU(negative_slope=0.01)
  (softmax): Softmax(dim=1)
)","[('avg_return_60d', 'AAPL'), ('avg_volume_20d', 'AAPL'), ('avg_std_5d', 'AAPL'), ('delta_range', 'AAPL'), ('avg_return_5d', 'AAPL'), ('price_to_ma_60d', 'AAPL'), ('avg_volume_60d', 'AAPL'), ('avg_return_20d', 'AAPL')]",0.65,0.6822429906542056,0.8
ABBV,-0.0007507304419085519,0.007480314628647885,"EnhancedDirectionPredictionModel(
  (lstm): LSTM(8, 64, num_layers=3, batch_first=True, dropout=0.2)
  (dropout): Dropout(p=0.2, inplace=False)
  (attention): Linear(in_features=64, out_features=1, bias=True)
  (fc1): Linear(in_features=64, out_features=32, bias=True)
  (fc2): Linear(in_features=32, out_features=2, bias=True)
  (leaky_relu): LeakyReLU(negative_slope=0.01)
  (softmax): Softmax(dim=1)
)","[('delta_high', 'ABBV'), ('delta_open', 'ABBV'), ('avg_std_60d', 'ABBV'), ('delta_overnight', 'ABBV'), ('delta_range', 'ABBV'), ('avg_std_5d', 'ABBV'), ('avg_std_20d', 'ABBV'), ('price_to_ma_5d', 'ABBV')]",0.65,0.411214953271028,0.37037037037037035
ABT,-0.00025415087106862714,0.006356501453277762,"EnhancedDirectionPredictionModel(
  (lstm): LSTM(8, 64, num_layers=3, batch_first=True, dropout=0.2)
  (dropout): Dropout(p=0.2, inplace=False)
  (attention): Linear(in_features=64, out_features=1, bias=True)
  (fc1): Linear(in_features=64, out_features=32, bias=True)
  (fc2): Linear(in_features=32, out_features=2, bias=True)
  (leaky_relu): LeakyReLU(negative_slope=0.01)
  (softmax): Softmax(dim=1)
)","[('avg_volume_60d', 'ABT'), ('avg_volume_5d', 'ABT'), ('avg_range_5d', 'ABT'), ('avg_return_5d', 'ABT'), ('avg_std_5d', 'ABT'), ('avg_range_20d', 'ABT'), ('avg_range_60d', 'ABT'), ('price_location_5d', 'ABT')]",0.65,0.4766355140186916,0.6206896551724138
ACGL,0.0010339486621878907,0.006477637385351759,"EnhancedDirectionPredictionModel(
  (lstm): LSTM(8, 64, num_layers=3, batch_first=True, dropout=0.2)
  (dropout): Dropout(p=0.2, inplace=False)
  (attention): Linear(in_features=64, out_features=1, bias=True)
  (fc1): Linear(in_features=64, out_features=32, bias=True)
  (fc2): Linear(in_features=32, out_features=2, bias=True)
  (leaky_relu): LeakyReLU(negative_slope=0.01)
  (softmax): Softmax(dim=1)
)","[('price_location_60d', 'ACGL'), ('price_to_ma_60d', 'ACGL'), ('avg_return_20d', 'ACGL'), ('avg_return_60d', 'ACGL'), ('price_location_20d', 'ACGL'), ('avg_std_20d', 'ACGL'), ('price_to_ma_20d', 'ACGL'), ('price_to_ma_5d', 'ACGL')]",0.65,0.5046728971962616,0.5
ACN,0.0003932999551241061,0.006138796328275034,"EnhancedDirectionPredictionModel(
  (lstm): LSTM(8, 64, num_layers=3, batch_first=True, dropout=0.2)
  (dropout): Dropout(p=0.2, inplace=False)
  (attention): Linear(in_features=64, out_features=1, bias=True)
  (fc1): Linear(in_features=64, out_features=32, bias=True)
  (fc2): Linear(in_features=32, out_features=2, bias=True)
  (leaky_relu): LeakyReLU(negative_slope=0.01)
  (softmax): Softmax(dim=1)
)","[('avg_std_60d', 'ACN'), ('return', 'ACN'), ('avg_range_60d', 'ACN'), ('delta_overnight', 'ACN'), ('delta_range', 'ACN'), ('delta_low', 'ACN'), ('price_location_5d', 'ACN'), ('avg_std_5d', 'ACN')]",0.65,0.5607476635514018,0.5897435897435898
ADBE,-4.9782961174796845e-06,0.006404082409985488,"EnhancedDirectionPredictionModel(
  (lstm): LSTM(8, 64, num_layers=3, batch_first=True, dropout=0.2)
  (dropout): Dropout(p=0.2, inplace=False)
  (attention): Linear(in_features=64, out_features=1, bias=True)
  (fc1): Linear(in_features=64, out_features=32, bias=True)
  (fc2): Linear(in_features=32, out_features=2, bias=True)
  (leaky_relu): LeakyReLU(negative_slope=0.01)
  (softmax): Softmax(dim=1)
)","[('price_to_ma_5d', 'ADBE'), ('price_location_5d', 'ADBE'), ('return', 'ADBE'), ('avg_volume_60d', 'ADBE'), ('price_to_ma_20d', 'ADBE'), ('avg_return_5d', 'ADBE'), ('delta_intraday', 'ADBE'), ('avg_std_60d', 'ADBE')]",0.65,0.4953271028037383,0.6666666666666666
ADI,-0.0018531649284696144,0.010236007564457894,"EnhancedDirectionPredictionModel(
  (lstm): LSTM(8, 64, num_layers=3, batch_first=True, dropout=0.2)
  (dropout): Dropout(p=0.2, inplace=False)
  (attention): Linear(in_features=64, out_features=1, bias=True)
  (fc1): Linear(in_features=64, out_features=32, bias=True)
  (fc2): Linear(in_features=32, out_features=2, bias=True)
  (leaky_relu): LeakyReLU(negative_slope=0.01)
  (softmax): Softmax(dim=1)
)","[('price_to_ma_20d', 'ADI'), ('price_location_20d', 'ADI'), ('price_to_ma_60d', 'ADI'), ('price_location_5d', 'ADI'), ('avg_return_20d', 'ADI'), ('avg_return_5d', 'ADI'), ('price_location_60d', 'ADI'), ('price_to_ma_5d', 'ADI')]",0.65,0.4672897196261682,0.44
ADM,-0.00021789653091764253,0.0069107851177954505,"EnhancedDirectionPredictionModel(
  (lstm): LSTM(8, 64, num_layers=3, batch_first=True, dropout=0.2)
  (dropout): Dropout(p=0.2, inplace=False)
  (attention): Linear(in_features=64, out_features=1, bias=True)
  (fc1): Linear(in_features=64, out_features=32, bias=True)
  (fc2): Linear(in_features=32, out_features=2, bias=True)
  (leaky_relu): LeakyReLU(negative_slope=0.01)
  (softmax): Softmax(dim=1)
)","[('avg_std_5d', 'ADM'), ('avg_range_5d', 'ADM'), ('avg_volume_20d', 'ADM'), ('avg_range_20d', 'ADM'), ('delta_intraday', 'ADM'), ('avg_return_5d', 'ADM'), ('avg_std_20d', 'ADM'), ('avg_volume_5d', 'ADM')]",0.65,0.4672897196261682,0.4
ADP,0.0015283717897987697,0.005353055371093369,"EnhancedDirectionPredictionModel(
  (lstm): LSTM(8, 64, num_layers=3, batch_first=True, dropout=0.2)
  (dropout): Dropout(p=0.2, inplace=False)
  (attention): Linear(in_features=64, out_features=1, bias=True)
  (fc1): Linear(in_features=64, out_features=32, bias=True)
  (fc2): Linear(in_features=32, out_features=2, bias=True)
  (leaky_relu): LeakyReLU(negative_slope=0.01)
  (softmax): Softmax(dim=1)
)","[('delta_range', 'ADP'), ('avg_return_60d', 'ADP'), ('delta_intraday', 'ADP'), ('price_to_ma_5d', 'ADP'), ('avg_volume_5d', 'ADP'), ('delta_high', 'ADP'), ('avg_return_5d', 'ADP'), ('avg_volume_60d', 'ADP')]",0.65,0.5233644859813084,0.5714285714285714
ADSK,0.0,0.006715812776232699,"EnhancedDirectionPredictionModel(
  (lstm): LSTM(8, 64, num_layers=3, batch_first=True, dropout=0.2)
  (dropout): Dropout(p=0.2, inplace=False)
  (attention): Linear(in_features=64, out_features=1, bias=True)
  (fc1): Linear(in_features=64, out_features=32, bias=True)
  (fc2): Linear(in_features=32, out_features=2, bias=True)
  (leaky_relu): LeakyReLU(negative_slope=0.01)
  (softmax): Softmax(dim=1)
)","[('avg_range_20d', 'ADSK'), ('avg_std_60d', 'ADSK'), ('avg_range_60d', 'ADSK'), ('delta_range', 'ADSK'), ('avg_std_20d', 'ADSK'), ('avg_range_5d', 'ADSK'), ('delta_low', 'ADSK'), ('avg_volume_20d', 'ADSK')]",0.65,0.5420560747663551,0.0
AEE,0.00042685669166667704,0.00540357490353745,"EnhancedDirectionPredictionModel(
  (lstm): LSTM(8, 64, num_layers=3, batch_first=True, dropout=0.2)
  (dropout): Dropout(p=0.2, inplace=False)
  (attention): Linear(in_features=64, out_features=1, bias=True)
  (fc1): Linear(in_features=64, out_features=32, bias=True)
  (fc2): Linear(in_features=32, out_features=2, bias=True)
  (leaky_relu): LeakyReLU(negative_slope=0.01)
  (softmax): Softmax(dim=1)
)","[('avg_return_60d', 'AEE'), ('price_to_ma_60d', 'AEE'), ('avg_range_20d', 'AEE'), ('price_location_60d', 'AEE'), ('price_to_ma_20d', 'AEE'), ('avg_return_5d', 'AEE'), ('avg_std_20d', 'AEE'), ('avg_range_5d', 'AEE')]",0.65,0.48598130841121495,0.8571428571428571
AEP,0.00037260748997938666,0.006018870948939255,"EnhancedDirectionPredictionModel(
  (lstm): LSTM(8, 64, num_layers=3, batch_first=True, dropout=0.2)
  (dropout): Dropout(p=0.2, inplace=False)
  (attention): Linear(in_features=64, out_features=1, bias=True)
  (fc1): Linear(in_features=64, out_features=32, bias=True)
  (fc2): Linear(in_features=32, out_features=2, bias=True)
  (leaky_relu): LeakyReLU(negative_slope=0.01)
  (softmax): Softmax(dim=1)
)","[('avg_range_20d', 'AEP'), ('avg_std_20d', 'AEP'), ('price_to_ma_60d', 'AEP'), ('avg_return_60d', 'AEP'), ('delta_volume', 'AEP'), ('price_location_60d', 'AEP'), ('price_to_ma_20d', 'AEP'), ('avg_volume_20d', 'AEP')]",0.65,0.48598130841121495,0.5686274509803921
AES,-0.0015669707593714748,0.010903921120559306,"EnhancedDirectionPredictionModel(
  (lstm): LSTM(8, 64, num_layers=3, batch_first=True, dropout=0.2)
  (dropout): Dropout(p=0.2, inplace=False)
  (attention): Linear(in_features=64, out_features=1, bias=True)
  (fc1): Linear(in_features=64, out_features=32, bias=True)
  (fc2): Linear(in_features=32, out_features=2, bias=True)
  (leaky_relu): LeakyReLU(negative_slope=0.01)
  (softmax): Softmax(dim=1)
)","[('avg_range_20d', 'AES'), ('avg_volume_60d', 'AES'), ('avg_std_20d', 'AES'), ('price_location_5d', 'AES'), ('price_to_ma_5d', 'AES'), ('delta_overnight', 'AES'), ('avg_return_5d', 'AES'), ('delta_low', 'AES')]",0.65,0.5046728971962616,0.45588235294117646
AFL,-0.00046753014809938325,0.005533167020337958,"EnhancedDirectionPredictionModel(
  (lstm): LSTM(8, 64, num_layers=3, batch_first=True, dropout=0.2)
  (dropout): Dropout(p=0.2, inplace=False)
  (attention): Linear(in_features=64, out_features=1, bias=True)
  (fc1): Linear(in_features=64, out_features=32, bias=True)
  (fc2): Linear(in_features=32, out_features=2, bias=True)
  (leaky_relu): LeakyReLU(negative_slope=0.01)
  (softmax): Softmax(dim=1)
)","[('avg_std_20d', 'AFL'), ('avg_volume_60d', 'AFL'), ('avg_volume_20d', 'AFL'), ('avg_range_20d', 'AFL'), ('delta_volume', 'AFL'), ('avg_std_5d', 'AFL'), ('avg_range_5d', 'AFL'), ('price_location_60d', 'AFL')]",0.65,0.4672897196261682,0.5384615384615384
AIG,0.0006699712389611808,0.006553783539033697,"EnhancedDirectionPredictionModel(
  (lstm): LSTM(8, 64, num_layers=3, batch_first=True, dropout=0.2)
  (dropout): Dropout(p=0.2, inplace=False)
  (attention): Linear(in_features=64, out_features=1, bias=True)
  (fc1): Linear(in_features=64, out_features=32, bias=True)
  (fc2): Linear(in_features=32, out_features=2, bias=True)
  (leaky_relu): LeakyReLU(negative_slope=0.01)
  (softmax): Softmax(dim=1)
)","[('avg_return_5d', 'AIG'), ('price_location_5d', 'AIG'), ('price_to_ma_5d', 'AIG'), ('price_to_ma_60d', 'AIG'), ('avg_return_60d', 'AIG'), ('price_to_ma_20d', 'AIG'), ('price_location_60d', 'AIG'), ('price_location_20d', 'AIG')]",0.65,0.4672897196261682,0.6
AIZ,-0.0012898056533375678,0.006405049261266379,"EnhancedDirectionPredictionModel(
  (lstm): LSTM(8, 64, num_layers=3, batch_first=True, dropout=0.2)
  (dropout): Dropout(p=0.2, inplace=False)
  (attention): Linear(in_features=64, out_features=1, bias=True)
  (fc1): Linear(in_features=64, out_features=32, bias=True)
  (fc2): Linear(in_features=32, out_features=2, bias=True)
  (leaky_relu): LeakyReLU(negative_slope=0.01)
  (softmax): Softmax(dim=1)
)","[('price_to_ma_5d', 'AIZ'), ('price_location_5d', 'AIZ'), ('avg_return_5d', 'AIZ'), ('avg_range_5d', 'AIZ'), ('delta_open', 'AIZ'), ('avg_return_60d', 'AIZ'), ('avg_volume_60d', 'AIZ'), ('avg_std_5d', 'AIZ')]",0.65,0.4953271028037383,0.4857142857142857
AJG,0.0013728614220735462,0.006910648781043998,"EnhancedDirectionPredictionModel(
  (lstm): LSTM(8, 64, num_layers=3, batch_first=True, dropout=0.2)
  (dropout): Dropout(p=0.2, inplace=False)
  (attention): Linear(in_features=64, out_features=1, bias=True)
  (fc1): Linear(in_features=64, out_features=32, bias=True)
  (fc2): Linear(in_features=32, out_features=2, bias=True)
  (leaky_relu): LeakyReLU(negative_slope=0.01)
  (softmax): Softmax(dim=1)
)","[('avg_return_60d', 'AJG'), ('avg_volume_60d', 'AJG'), ('delta_volume', 'AJG'), ('price_to_ma_60d', 'AJG'), ('avg_volume_5d', 'AJG'), ('price_location_60d', 'AJG'), ('delta_high', 'AJG'), ('avg_std_20d', 'AJG')]",0.65,0.5514018691588785,0.675
AKAM,0.00012154929258034327,0.0084114597349763,"EnhancedDirectionPredictionModel(
  (lstm): LSTM(8, 64, num_layers=3, batch_first=True, dropout=0.2)
  (dropout): Dropout(p=0.2, inplace=False)
  (attention): Linear(in_features=64, out_features=1, bias=True)
  (fc1): Linear(in_features=64, out_features=32, bias=True)
  (fc2): Linear(in_features=32, out_features=2, bias=True)
  (leaky_relu): LeakyReLU(negative_slope=0.01)
  (softmax): Softmax(dim=1)
)","[('delta_range', 'AKAM'), ('delta_volume', 'AKAM'), ('delta_overnight', 'AKAM'), ('avg_volume_60d', 'AKAM'), ('delta_low', 'AKAM'), ('price_location_20d', 'AKAM'), ('price_location_60d', 'AKAM'), ('price_location_5d', 'AKAM')]",0.65,0.4766355140186916,0.5454545454545454
ALB,-0.0004919325842095081,0.010485594060246605,"EnhancedDirectionPredictionModel(
  (lstm): LSTM(8, 64, num_layers=3, batch_first=True, dropout=0.2)
  (dropout): Dropout(p=0.2, inplace=False)
  (attention): Linear(in_features=64, out_features=1, bias=True)
  (fc1): Linear(in_features=64, out_features=32, bias=True)
  (fc2): Linear(in_features=32, out_features=2, bias=True)
  (leaky_relu): LeakyReLU(negative_slope=0.01)
  (softmax): Softmax(dim=1)
)","[('avg_range_20d', 'ALB'), ('avg_std_20d', 'ALB'), ('avg_range_5d', 'ALB'), ('avg_std_5d', 'ALB'), ('avg_volume_60d', 'ALB'), ('avg_std_60d', 'ALB'), ('avg_volume_20d', 'ALB'), ('delta_range', 'ALB')]",0.65,0.5981308411214953,0.5714285714285714
ALGN,0.0,0.008535326503514724,"EnhancedDirectionPredictionModel(
  (lstm): LSTM(8, 64, num_layers=3, batch_first=True, dropout=0.2)
  (dropout): Dropout(p=0.2, inplace=False)
  (attention): Linear(in_features=64, out_features=1, bias=True)
  (fc1): Linear(in_features=64, out_features=32, bias=True)
  (fc2): Linear(in_features=32, out_features=2, bias=True)
  (leaky_relu): LeakyReLU(negative_slope=0.01)
  (softmax): Softmax(dim=1)
)","[('avg_volume_60d', 'ALGN'), ('avg_volume_20d', 'ALGN'), ('avg_std_5d', 'ALGN'), ('price_location_60d', 'ALGN'), ('avg_volume_5d', 'ALGN'), ('avg_std_60d', 'ALGN'), ('delta_low', 'ALGN'), ('delta_open', 'ALGN')]",0.65,0.5700934579439252,0.0
ALL,0.0008403617840735068,0.006864824555391797,"EnhancedDirectionPredictionModel(
  (lstm): LSTM(8, 64, num_layers=3, batch_first=True, dropout=0.2)
  (dropout): Dropout(p=0.2, inplace=False)
  (attention): Linear(in_features=64, out_features=1, bias=True)
  (fc1): Linear(in_features=64, out_features=32, bias=True)
  (fc2): Linear(in_features=32, out_features=2, bias=True)
  (leaky_relu): LeakyReLU(negative_slope=0.01)
  (softmax): Softmax(dim=1)
)","[('avg_volume_20d', 'ALL'), ('price_to_ma_5d', 'ALL'), ('avg_return_20d', 'ALL'), ('avg_std_20d', 'ALL'), ('price_to_ma_20d', 'ALL'), ('delta_intraday', 'ALL'), ('avg_volume_5d', 'ALL'), ('avg_range_20d', 'ALL')]",0.65,0.4672897196261682,0.5135135135135135
ALLE,0.001092999988027543,0.006948023920933653,"EnhancedDirectionPredictionModel(
  (lstm): LSTM(8, 64, num_layers=3, batch_first=True, dropout=0.2)
  (dropout): Dropout(p=0.2, inplace=False)
  (attention): Linear(in_features=64, out_features=1, bias=True)
  (fc1): Linear(in_features=64, out_features=32, bias=True)
  (fc2): Linear(in_features=32, out_features=2, bias=True)
  (leaky_relu): LeakyReLU(negative_slope=0.01)
  (softmax): Softmax(dim=1)
)","[('avg_volume_60d', 'ALLE'), ('delta_volume', 'ALLE'), ('delta_open', 'ALLE'), ('delta_overnight', 'ALLE'), ('avg_range_5d', 'ALLE'), ('avg_volume_20d', 'ALLE'), ('delta_range', 'ALLE'), ('price_to_ma_20d', 'ALLE')]",0.65,0.4953271028037383,0.5416666666666666
AMAT,-0.00018567141411514034,0.010969484168495849,"EnhancedDirectionPredictionModel(
  (lstm): LSTM(8, 64, num_layers=3, batch_first=True, dropout=0.2)
  (dropout): Dropout(p=0.2, inplace=False)
  (attention): Linear(in_features=64, out_features=1, bias=True)
  (fc1): Linear(in_features=64, out_features=32, bias=True)
  (fc2): Linear(in_features=32, out_features=2, bias=True)
  (leaky_relu): LeakyReLU(negative_slope=0.01)
  (softmax): Softmax(dim=1)
)","[('return', 'AMAT'), ('delta_high', 'AMAT'), ('price_location_5d', 'AMAT'), ('delta_range', 'AMAT'), ('price_to_ma_5d', 'AMAT'), ('delta_intraday', 'AMAT'), ('delta_low', 'AMAT'), ('avg_return_5d', 'AMAT')]",0.65,0.5233644859813084,0.5185185185185185
AMCR,0.00030584620114630217,0.005675892672818803,"EnhancedDirectionPredictionModel(
  (lstm): LSTM(8, 64, num_layers=3, batch_first=True, dropout=0.2)
  (dropout): Dropout(p=0.2, inplace=False)
  (attention): Linear(in_features=64, out_features=1, bias=True)
  (fc1): Linear(in_features=64, out_features=32, bias=True)
  (fc2): Linear(in_features=32, out_features=2, bias=True)
  (leaky_relu): LeakyReLU(negative_slope=0.01)
  (softmax): Softmax(dim=1)
)","[('avg_return_5d', 'AMCR'), ('price_location_5d', 'AMCR'), ('delta_high', 'AMCR'), ('price_to_ma_5d', 'AMCR'), ('price_location_20d', 'AMCR'), ('delta_low', 'AMCR'), ('return', 'AMCR'), ('delta_intraday', 'AMCR')]",0.65,0.5700934579439252,0.5081967213114754
AMD,0.0,0.012593263379093826,"EnhancedDirectionPredictionModel(
  (lstm): LSTM(8, 64, num_layers=3, batch_first=True, dropout=0.2)
  (dropout): Dropout(p=0.2, inplace=False)
  (attention): Linear(in_features=64, out_features=1, bias=True)
  (fc1): Linear(in_features=64, out_features=32, bias=True)
  (fc2): Linear(in_features=32, out_features=2, bias=True)
  (leaky_relu): LeakyReLU(negative_slope=0.01)
  (softmax): Softmax(dim=1)
)","[('price_to_ma_60d', 'AMD'), ('delta_range', 'AMD'), ('avg_return_60d', 'AMD'), ('price_location_60d', 'AMD'), ('avg_volume_60d', 'AMD'), ('avg_volume_20d', 'AMD'), ('delta_volume', 'AMD'), ('avg_return_20d', 'AMD')]",0.65,0.4953271028037383,0.0
AME,-0.0007781463050302397,0.005725810739277678,"EnhancedDirectionPredictionModel(
  (lstm): LSTM(8, 64, num_layers=3, batch_first=True, dropout=0.2)
  (dropout): Dropout(p=0.2, inplace=False)
  (attention): Linear(in_features=64, out_features=1, bias=True)
  (fc1): Linear(in_features=64, out_features=32, bias=True)
  (fc2): Linear(in_features=32, out_features=2, bias=True)
  (leaky_relu): LeakyReLU(negative_slope=0.01)
  (softmax): Softmax(dim=1)
)","[('avg_volume_5d', 'AME'), ('avg_std_20d', 'AME'), ('avg_range_5d', 'AME'), ('delta_overnight', 'AME'), ('delta_intraday', 'AME'), ('avg_return_60d', 'AME'), ('delta_range', 'AME'), ('avg_range_20d', 'AME')]",0.65,0.5233644859813084,0.45161290322580644
AMGN,0.0011448305497894632,0.006943631242767449,"EnhancedDirectionPredictionModel(
  (lstm): LSTM(8, 64, num_layers=3, batch_first=True, dropout=0.2)
  (dropout): Dropout(p=0.2, inplace=False)
  (attention): Linear(in_features=64, out_features=1, bias=True)
  (fc1): Linear(in_features=64, out_features=32, bias=True)
  (fc2): Linear(in_features=32, out_features=2, bias=True)
  (leaky_relu): LeakyReLU(negative_slope=0.01)
  (softmax): Softmax(dim=1)
)","[('delta_volume', 'AMGN'), ('avg_return_20d', 'AMGN'), ('avg_volume_5d', 'AMGN'), ('delta_intraday', 'AMGN'), ('price_location_20d', 'AMGN'), ('avg_return_60d', 'AMGN'), ('return', 'AMGN'), ('delta_open', 'AMGN')]",0.65,0.4766355140186916,0.75
AMP,0.0,0.007248716184717091,"EnhancedDirectionPredictionModel(
  (lstm): LSTM(8, 64, num_layers=3, batch_first=True, dropout=0.2)
  (dropout): Dropout(p=0.2, inplace=False)
  (attention): Linear(in_features=64, out_features=1, bias=True)
  (fc1): Linear(in_features=64, out_features=32, bias=True)
  (fc2): Linear(in_features=32, out_features=2, bias=True)
  (leaky_relu): LeakyReLU(negative_slope=0.01)
  (softmax): Softmax(dim=1)
)","[('avg_volume_60d', 'AMP'), ('avg_return_5d', 'AMP'), ('price_location_5d', 'AMP'), ('price_to_ma_20d', 'AMP'), ('price_to_ma_5d', 'AMP'), ('avg_range_60d', 'AMP'), ('delta_intraday', 'AMP'), ('return', 'AMP')]",0.65,0.45794392523364486,0.0
AMT,-0.001297318879745229,0.007651318979912805,"EnhancedDirectionPredictionModel(
  (lstm): LSTM(8, 64, num_layers=3, batch_first=True, dropout=0.2)
  (dropout): Dropout(p=0.2, inplace=False)
  (attention): Linear(in_features=64, out_features=1, bias=True)
  (fc1): Linear(in_features=64, out_features=32, bias=True)
  (fc2): Linear(in_features=32, out_features=2, bias=True)
  (leaky_relu): LeakyReLU(negative_slope=0.01)
  (softmax): Softmax(dim=1)
)","[('price_to_ma_5d', 'AMT'), ('avg_volume_20d', 'AMT'), ('return', 'AMT'), ('price_location_5d', 'AMT'), ('delta_low', 'AMT'), ('delta_intraday', 'AMT'), ('avg_std_20d', 'AMT'), ('avg_return_5d', 'AMT')]",0.65,0.38317757009345793,0.44642857142857145
AMZN,0.00017940182147948943,0.008498616779346721,"EnhancedDirectionPredictionModel(
  (lstm): LSTM(8, 64, num_layers=3, batch_first=True, dropout=0.2)
  (dropout): Dropout(p=0.2, inplace=False)
  (attention): Linear(in_features=64, out_features=1, bias=True)
  (fc1): Linear(in_features=64, out_features=32, bias=True)
  (fc2): Linear(in_features=32, out_features=2, bias=True)
  (leaky_relu): LeakyReLU(negative_slope=0.01)
  (softmax): Softmax(dim=1)
)","[('avg_volume_60d', 'AMZN'), ('avg_return_20d', 'AMZN'), ('price_to_ma_20d', 'AMZN'), ('avg_return_60d', 'AMZN'), ('price_to_ma_60d', 'AMZN'), ('avg_return_5d', 'AMZN'), ('price_location_60d', 'AMZN'), ('avg_std_20d', 'AMZN')]",0.65,0.514018691588785,0.4864864864864865
ANET,0.0032519995536675374,0.01361274381817829,"EnhancedDirectionPredictionModel(
  (lstm): LSTM(8, 64, num_layers=3, batch_first=True, dropout=0.2)
  (dropout): Dropout(p=0.2, inplace=False)
  (attention): Linear(in_features=64, out_features=1, bias=True)
  (fc1): Linear(in_features=64, out_features=32, bias=True)
  (fc2): Linear(in_features=32, out_features=2, bias=True)
  (leaky_relu): LeakyReLU(negative_slope=0.01)
  (softmax): Softmax(dim=1)
)","[('avg_std_5d', 'ANET'), ('avg_return_60d', 'ANET'), ('avg_volume_5d', 'ANET'), ('avg_range_5d', 'ANET'), ('avg_std_20d', 'ANET'), ('delta_intraday', 'ANET'), ('avg_range_20d', 'ANET'), ('avg_return_5d', 'ANET')]",0.65,0.5514018691588785,0.6857142857142857
ANSS,0.0,0.005586339895174763,"EnhancedDirectionPredictionModel(
  (lstm): LSTM(8, 64, num_layers=3, batch_first=True, dropout=0.2)
  (dropout): Dropout(p=0.2, inplace=False)
  (attention): Linear(in_features=64, out_features=1, bias=True)
  (fc1): Linear(in_features=64, out_features=32, bias=True)
  (fc2): Linear(in_features=32, out_features=2, bias=True)
  (leaky_relu): LeakyReLU(negative_slope=0.01)
  (softmax): Softmax(dim=1)
)","[('avg_volume_20d', 'ANSS'), ('avg_return_5d', 'ANSS'), ('price_to_ma_20d', 'ANSS'), ('avg_volume_60d', 'ANSS'), ('delta_volume', 'ANSS'), ('price_to_ma_5d', 'ANSS'), ('avg_volume_5d', 'ANSS'), ('price_location_5d', 'ANSS')]",0.65,0.4953271028037383,0.0
AON,0.0005650918878512629,0.005346993955347105,"EnhancedDirectionPredictionModel(
  (lstm): LSTM(8, 64, num_layers=3, batch_first=True, dropout=0.2)
  (dropout): Dropout(p=0.2, inplace=False)
  (attention): Linear(in_features=64, out_features=1, bias=True)
  (fc1): Linear(in_features=64, out_features=32, bias=True)
  (fc2): Linear(in_features=32, out_features=2, bias=True)
  (leaky_relu): LeakyReLU(negative_slope=0.01)
  (softmax): Softmax(dim=1)
)","[('avg_volume_60d', 'AON'), ('delta_low', 'AON'), ('delta_open', 'AON'), ('delta_volume', 'AON'), ('avg_return_5d', 'AON'), ('avg_std_60d', 'AON'), ('price_location_20d', 'AON'), ('price_location_60d', 'AON')]",0.65,0.5514018691588785,0.55
AOS,-0.0006147999287498223,0.0060296433071454665,"EnhancedDirectionPredictionModel(
  (lstm): LSTM(8, 64, num_layers=3, batch_first=True, dropout=0.2)
  (dropout): Dropout(p=0.2, inplace=False)
  (attention): Linear(in_features=64, out_features=1, bias=True)
  (fc1): Linear(in_features=64, out_features=32, bias=True)
  (fc2): Linear(in_features=32, out_features=2, bias=True)
  (leaky_relu): LeakyReLU(negative_slope=0.01)
  (softmax): Softmax(dim=1)
)","[('price_location_5d', 'AOS'), ('delta_open', 'AOS'), ('delta_high', 'AOS'), ('avg_return_5d', 'AOS'), ('avg_volume_5d', 'AOS'), ('delta_low', 'AOS'), ('avg_return_60d', 'AOS'), ('price_location_20d', 'AOS')]",0.65,0.514018691588785,0.4444444444444444
APA,0.0034142860506123445,0.011960437340538782,"EnhancedDirectionPredictionModel(
  (lstm): LSTM(8, 64, num_layers=3, batch_first=True, dropout=0.2)
  (dropout): Dropout(p=0.2, inplace=False)
  (attention): Linear(in_features=64, out_features=1, bias=True)
  (fc1): Linear(in_features=64, out_features=32, bias=True)
  (fc2): Linear(in_features=32, out_features=2, bias=True)
  (leaky_relu): LeakyReLU(negative_slope=0.01)
  (softmax): Softmax(dim=1)
)","[('avg_range_20d', 'APA'), ('avg_range_5d', 'APA'), ('avg_return_20d', 'APA'), ('price_to_ma_60d', 'APA'), ('avg_std_5d', 'APA'), ('avg_std_20d', 'APA'), ('price_location_60d', 'APA'), ('delta_intraday', 'APA')]",0.65,0.5887850467289719,0.6428571428571429
APD,0.0006289573988074523,0.006181705115305351,"EnhancedDirectionPredictionModel(
  (lstm): LSTM(8, 64, num_layers=3, batch_first=True, dropout=0.2)
  (dropout): Dropout(p=0.2, inplace=False)
  (attention): Linear(in_features=64, out_features=1, bias=True)
  (fc1): Linear(in_features=64, out_features=32, bias=True)
  (fc2): Linear(in_features=32, out_features=2, bias=True)
  (leaky_relu): LeakyReLU(negative_slope=0.01)
  (softmax): Softmax(dim=1)
)","[('price_to_ma_60d', 'APD'), ('avg_return_60d', 'APD'), ('avg_range_5d', 'APD'), ('avg_volume_5d', 'APD'), ('price_location_60d', 'APD'), ('avg_return_20d', 'APD'), ('avg_volume_20d', 'APD'), ('delta_open', 'APD')]",0.65,0.5887850467289719,0.5897435897435898
APH,0.0015796601348701165,0.01052238415670554,"EnhancedDirectionPredictionModel(
  (lstm): LSTM(8, 64, num_layers=3, batch_first=True, dropout=0.2)
  (dropout): Dropout(p=0.2, inplace=False)
  (attention): Linear(in_features=64, out_features=1, bias=True)
  (fc1): Linear(in_features=64, out_features=32, bias=True)
  (fc2): Linear(in_features=32, out_features=2, bias=True)
  (leaky_relu): LeakyReLU(negative_slope=0.01)
  (softmax): Softmax(dim=1)
)","[('price_to_ma_60d', 'APH'), ('avg_return_60d', 'APH'), ('price_location_60d', 'APH'), ('avg_return_5d', 'APH'), ('price_to_ma_20d', 'APH'), ('price_to_ma_5d', 'APH'), ('price_location_20d', 'APH'), ('avg_range_5d', 'APH')]",0.65,0.5233644859813084,0.5348837209302325
APO,-0.0025134091097959487,0.010119965725518196,"EnhancedDirectionPredictionModel(
  (lstm): LSTM(8, 64, num_layers=3, batch_first=True, dropout=0.2)
  (dropout): Dropout(p=0.2, inplace=False)
  (attention): Linear(in_features=64, out_features=1, bias=True)
  (fc1): Linear(in_features=64, out_features=32, bias=True)
  (fc2): Linear(in_features=32, out_features=2, bias=True)
  (leaky_relu): LeakyReLU(negative_slope=0.01)
  (softmax): Softmax(dim=1)
)","[('delta_overnight', 'APO'), ('delta_open', 'APO'), ('price_location_5d', 'APO'), ('price_location_60d', 'APO'), ('delta_range', 'APO'), ('delta_intraday', 'APO'), ('avg_return_5d', 'APO'), ('avg_return_20d', 'APO')]",0.65,0.5794392523364486,0.5423728813559322
APTV,0.0,0.009489118614154338,"EnhancedDirectionPredictionModel(
  (lstm): LSTM(8, 64, num_layers=3, batch_first=True, dropout=0.2)
  (dropout): Dropout(p=0.2, inplace=False)
  (attention): Linear(in_features=64, out_features=1, bias=True)
  (fc1): Linear(in_features=64, out_features=32, bias=True)
  (fc2): Linear(in_features=32, out_features=2, bias=True)
  (leaky_relu): LeakyReLU(negative_slope=0.01)
  (softmax): Softmax(dim=1)
)","[('avg_range_20d', 'APTV'), ('price_location_60d', 'APTV'), ('price_to_ma_60d', 'APTV'), ('avg_return_60d', 'APTV'), ('avg_std_60d', 'APTV'), ('avg_volume_20d', 'APTV'), ('avg_return_20d', 'APTV'), ('delta_intraday', 'APTV')]",0.65,0.4672897196261682,0.0
ARE,0.0,0.006374284396757394,"EnhancedDirectionPredictionModel(
  (lstm): LSTM(8, 64, num_layers=3, batch_first=True, dropout=0.2)
  (dropout): Dropout(p=0.2, inplace=False)
  (attention): Linear(in_features=64, out_features=1, bias=True)
  (fc1): Linear(in_features=64, out_features=32, bias=True)
  (fc2): Linear(in_features=32, out_features=2, bias=True)
  (leaky_relu): LeakyReLU(negative_slope=0.01)
  (softmax): Softmax(dim=1)
)","[('avg_std_5d', 'ARE'), ('delta_overnight', 'ARE'), ('avg_range_5d', 'ARE'), ('avg_range_60d', 'ARE'), ('delta_range', 'ARE'), ('avg_std_60d', 'ARE'), ('return', 'ARE'), ('avg_volume_60d', 'ARE')]",0.65,0.5046728971962616,0.0
ATO,0.0014488789630786871,0.005490992214621481,"EnhancedDirectionPredictionModel(
  (lstm): LSTM(8, 64, num_layers=3, batch_first=True, dropout=0.2)
  (dropout): Dropout(p=0.2, inplace=False)
  (attention): Linear(in_features=64, out_features=1, bias=True)
  (fc1): Linear(in_features=64, out_features=32, bias=True)
  (fc2): Linear(in_features=32, out_features=2, bias=True)
  (leaky_relu): LeakyReLU(negative_slope=0.01)
  (softmax): Softmax(dim=1)
)","[('avg_range_20d', 'ATO'), ('avg_std_20d', 'ATO'), ('price_to_ma_20d', 'ATO'), ('price_to_ma_60d', 'ATO'), ('avg_range_5d', 'ATO'), ('delta_range', 'ATO'), ('avg_return_5d', 'ATO'), ('avg_return_20d', 'ATO')]",0.65,0.5233644859813084,0.578125
AVB,0.00015155381068171543,0.0053672944515605,"EnhancedDirectionPredictionModel(
  (lstm): LSTM(8, 64, num_layers=3, batch_first=True, dropout=0.2)
  (dropout): Dropout(p=0.2, inplace=False)
  (attention): Linear(in_features=64, out_features=1, bias=True)
  (fc1): Linear(in_features=64, out_features=32, bias=True)
  (fc2): Linear(in_features=32, out_features=2, bias=True)
  (leaky_relu): LeakyReLU(negative_slope=0.01)
  (softmax): Softmax(dim=1)
)","[('avg_return_60d', 'AVB'), ('delta_overnight', 'AVB'), ('avg_std_5d', 'AVB'), ('avg_return_5d', 'AVB'), ('delta_intraday', 'AVB'), ('avg_range_5d', 'AVB'), ('price_to_ma_5d', 'AVB'), ('avg_std_60d', 'AVB')]",0.65,0.48598130841121495,0.4186046511627907
AVGO,-0.0005336563967442914,0.013662457949296693,"EnhancedDirectionPredictionModel(
  (lstm): LSTM(8, 64, num_layers=3, batch_first=True, dropout=0.2)
  (dropout): Dropout(p=0.2, inplace=False)
  (attention): Linear(in_features=64, out_features=1, bias=True)
  (fc1): Linear(in_features=64, out_features=32, bias=True)
  (fc2): Linear(in_features=32, out_features=2, bias=True)
  (leaky_relu): LeakyReLU(negative_slope=0.01)
  (softmax): Softmax(dim=1)
)","[('avg_return_5d', 'AVGO'), ('price_location_20d', 'AVGO'), ('price_to_ma_20d', 'AVGO'), ('price_location_60d', 'AVGO'), ('price_location_5d', 'AVGO'), ('price_to_ma_5d', 'AVGO'), ('price_to_ma_60d', 'AVGO'), ('avg_return_60d', 'AVGO')]",0.65,0.5046728971962616,0.53125
AVY,-0.0006325466341063102,0.005843090690218615,"EnhancedDirectionPredictionModel(
  (lstm): LSTM(8, 64, num_layers=3, batch_first=True, dropout=0.2)
  (dropout): Dropout(p=0.2, inplace=False)
  (attention): Linear(in_features=64, out_features=1, bias=True)
  (fc1): Linear(in_features=64, out_features=32, bias=True)
  (fc2): Linear(in_features=32, out_features=2, bias=True)
  (leaky_relu): LeakyReLU(negative_slope=0.01)
  (softmax): Softmax(dim=1)
)","[('avg_volume_5d', 'AVY'), ('delta_open', 'AVY'), ('avg_volume_60d', 'AVY'), ('price_to_ma_5d', 'AVY'), ('delta_high', 'AVY'), ('price_location_5d', 'AVY'), ('delta_low', 'AVY'), ('return', 'AVY')]",0.65,0.4953271028037383,0.48
AWK,0.00046375390771427214,0.0071298713714499995,"EnhancedDirectionPredictionModel(
  (lstm): LSTM(8, 64, num_layers=3, batch_first=True, dropout=0.2)
  (dropout): Dropout(p=0.2, inplace=False)
  (attention): Linear(in_features=64, out_features=1, bias=True)
  (fc1): Linear(in_features=64, out_features=32, bias=True)
  (fc2): Linear(in_features=32, out_features=2, bias=True)
  (leaky_relu): LeakyReLU(negative_slope=0.01)
  (softmax): Softmax(dim=1)
)","[('delta_overnight', 'AWK'), ('avg_return_60d', 'AWK'), ('price_to_ma_60d', 'AWK'), ('avg_std_20d', 'AWK'), ('delta_high', 'AWK'), ('delta_low', 'AWK'), ('avg_range_20d', 'AWK'), ('delta_range', 'AWK')]",0.65,0.5420560747663551,0.75
AXON,0.0029028700880594786,0.013090182647324622,"EnhancedDirectionPredictionModel(
  (lstm): LSTM(8, 64, num_layers=3, batch_first=True, dropout=0.2)
  (dropout): Dropout(p=0.2, inplace=False)
  (attention): Linear(in_features=64, out_features=1, bias=True)
  (fc1): Linear(in_features=64, out_features=32, bias=True)
  (fc2): Linear(in_features=32, out_features=2, bias=True)
  (leaky_relu): LeakyReLU(negative_slope=0.01)
  (softmax): Softmax(dim=1)
)","[('delta_volume', 'AXON'), ('delta_intraday', 'AXON'), ('price_location_5d', 'AXON'), ('avg_return_5d', 'AXON'), ('delta_overnight', 'AXON'), ('price_to_ma_5d', 'AXON'), ('avg_volume_20d', 'AXON'), ('avg_volume_60d', 'AXON')]",0.65,0.5794392523364486,0.6444444444444445
AXP,-0.0018721413453257495,0.008064402490237833,"EnhancedDirectionPredictionModel(
  (lstm): LSTM(8, 64, num_layers=3, batch_first=True, dropout=0.2)
  (dropout): Dropout(p=0.2, inplace=False)
  (attention): Linear(in_features=64, out_features=1, bias=True)
  (fc1): Linear(in_features=64, out_features=32, bias=True)
  (fc2): Linear(in_features=32, out_features=2, bias=True)
  (leaky_relu): LeakyReLU(negative_slope=0.01)
  (softmax): Softmax(dim=1)
)","[('delta_open', 'AXP'), ('price_location_5d', 'AXP'), ('avg_volume_20d', 'AXP'), ('avg_range_60d', 'AXP'), ('avg_volume_5d', 'AXP'), ('delta_low', 'AXP'), ('delta_overnight', 'AXP'), ('avg_std_60d', 'AXP')]",0.65,0.4205607476635514,0.43137254901960786
AZO,0.0,0.005980443236586058,"EnhancedDirectionPredictionModel(
  (lstm): LSTM(8, 64, num_layers=3, batch_first=True, dropout=0.2)
  (dropout): Dropout(p=0.2, inplace=False)
  (attention): Linear(in_features=64, out_features=1, bias=True)
  (fc1): Linear(in_features=64, out_features=32, bias=True)
  (fc2): Linear(in_features=32, out_features=2, bias=True)
  (leaky_relu): LeakyReLU(negative_slope=0.01)
  (softmax): Softmax(dim=1)
)","[('avg_return_60d', 'AZO'), ('price_location_60d', 'AZO'), ('price_to_ma_60d', 'AZO'), ('avg_range_5d', 'AZO'), ('avg_std_20d', 'AZO'), ('delta_range', 'AZO'), ('avg_std_60d', 'AZO'), ('avg_range_20d', 'AZO')]",0.65,0.4672897196261682,0.0
BA,0.0004000728242084066,0.010061278893504482,"EnhancedDirectionPredictionModel(
  (lstm): LSTM(8, 64, num_layers=3, batch_first=True, dropout=0.2)
  (dropout): Dropout(p=0.2, inplace=False)
  (attention): Linear(in_features=64, out_features=1, bias=True)
  (fc1): Linear(in_features=64, out_features=32, bias=True)
  (fc2): Linear(in_features=32, out_features=2, bias=True)
  (leaky_relu): LeakyReLU(negative_slope=0.01)
  (softmax): Softmax(dim=1)
)","[('avg_range_5d', 'BA'), ('price_location_20d', 'BA'), ('price_location_60d', 'BA'), ('delta_intraday', 'BA'), ('avg_range_20d', 'BA'), ('avg_std_5d', 'BA'), ('avg_range_60d', 'BA'), ('price_location_5d', 'BA')]",0.65,0.5046728971962616,0.5645161290322581
BAC,-0.0002879694399165015,0.0070282045251651125,"EnhancedDirectionPredictionModel(
  (lstm): LSTM(8, 64, num_layers=3, batch_first=True, dropout=0.2)
  (dropout): Dropout(p=0.2, inplace=False)
  (attention): Linear(in_features=64, out_features=1, bias=True)
  (fc1): Linear(in_features=64, out_features=32, bias=True)
  (fc2): Linear(in_features=32, out_features=2, bias=True)
  (leaky_relu): LeakyReLU(negative_slope=0.01)
  (softmax): Softmax(dim=1)
)","[('delta_open', 'BAC'), ('delta_overnight', 'BAC'), ('delta_low', 'BAC'), ('delta_high', 'BAC'), ('avg_volume_5d', 'BAC'), ('return', 'BAC'), ('delta_volume', 'BAC'), ('avg_range_20d', 'BAC')]",0.65,0.48598130841121495,0.5483870967741935
BALL,0.00036630536947103925,0.006301759505955791,"EnhancedDirectionPredictionModel(
  (lstm): LSTM(8, 64, num_layers=3, batch_first=True, dropout=0.2)
  (dropout): Dropout(p=0.2, inplace=False)
  (attention): Linear(in_features=64, out_features=1, bias=True)
  (fc1): Linear(in_features=64, out_features=32, bias=True)
  (fc2): Linear(in_features=32, out_features=2, bias=True)
  (leaky_relu): LeakyReLU(negative_slope=0.01)
  (softmax): Softmax(dim=1)
)","[('price_to_ma_20d', 'BALL'), ('avg_return_5d', 'BALL'), ('avg_volume_5d', 'BALL'), ('delta_volume', 'BALL'), ('delta_open', 'BALL'), ('delta_overnight', 'BALL'), ('price_location_20d', 'BALL'), ('delta_high', 'BALL')]",0.65,0.5420560747663551,0.4666666666666667
BAX,-0.0006667855553134696,0.008603107500208372,"EnhancedDirectionPredictionModel(
  (lstm): LSTM(8, 64, num_layers=3, batch_first=True, dropout=0.2)
  (dropout): Dropout(p=0.2, inplace=False)
  (attention): Linear(in_features=64, out_features=1, bias=True)
  (fc1): Linear(in_features=64, out_features=32, bias=True)
  (fc2): Linear(in_features=32, out_features=2, bias=True)
  (leaky_relu): LeakyReLU(negative_slope=0.01)
  (softmax): Softmax(dim=1)
)","[('delta_overnight', 'BAX'), ('delta_intraday', 'BAX'), ('avg_return_60d', 'BAX'), ('avg_volume_60d', 'BAX'), ('delta_volume', 'BAX'), ('avg_volume_5d', 'BAX'), ('price_to_ma_60d', 'BAX'), ('delta_range', 'BAX')]",0.65,0.45794392523364486,0.4
BBY,-0.0031701311100081316,0.009258742234063833,"EnhancedDirectionPredictionModel(
  (lstm): LSTM(8, 64, num_layers=3, batch_first=True, dropout=0.2)
  (dropout): Dropout(p=0.2, inplace=False)
  (attention): Linear(in_features=64, out_features=1, bias=True)
  (fc1): Linear(in_features=64, out_features=32, bias=True)
  (fc2): Linear(in_features=32, out_features=2, bias=True)
  (leaky_relu): LeakyReLU(negative_slope=0.01)
  (softmax): Softmax(dim=1)
)","[('price_to_ma_60d', 'BBY'), ('price_to_ma_20d', 'BBY'), ('avg_volume_5d', 'BBY'), ('avg_return_5d', 'BBY'), ('avg_return_20d', 'BBY'), ('avg_std_60d', 'BBY'), ('delta_overnight', 'BBY'), ('avg_volume_60d', 'BBY')]",0.65,0.4485981308411215,0.43478260869565216
BDX,0.0010636297758099117,0.004995359663493679,"EnhancedDirectionPredictionModel(
  (lstm): LSTM(8, 64, num_layers=3, batch_first=True, dropout=0.2)
  (dropout): Dropout(p=0.2, inplace=False)
  (attention): Linear(in_features=64, out_features=1, bias=True)
  (fc1): Linear(in_features=64, out_features=32, bias=True)
  (fc2): Linear(in_features=32, out_features=2, bias=True)
  (leaky_relu): LeakyReLU(negative_slope=0.01)
  (softmax): Softmax(dim=1)
)","[('price_location_5d', 'BDX'), ('price_location_20d', 'BDX'), ('avg_return_5d', 'BDX'), ('delta_high', 'BDX'), ('price_location_60d', 'BDX'), ('delta_range', 'BDX'), ('delta_intraday', 'BDX'), ('price_to_ma_20d', 'BDX')]",0.65,0.5514018691588785,0.5333333333333333
BEN,0.0023076102718443767,0.008221183699454139,"EnhancedDirectionPredictionModel(
  (lstm): LSTM(8, 64, num_layers=3, batch_first=True, dropout=0.2)
  (dropout): Dropout(p=0.2, inplace=False)
  (attention): Linear(in_features=64, out_features=1, bias=True)
  (fc1): Linear(in_features=64, out_features=32, bias=True)
  (fc2): Linear(in_features=32, out_features=2, bias=True)
  (leaky_relu): LeakyReLU(negative_slope=0.01)
  (softmax): Softmax(dim=1)
)","[('avg_range_60d', 'BEN'), ('avg_return_5d', 'BEN'), ('avg_std_60d', 'BEN'), ('avg_std_5d', 'BEN'), ('delta_high', 'BEN'), ('avg_range_20d', 'BEN'), ('delta_range', 'BEN'), ('delta_volume', 'BEN')]",0.65,0.616822429906542,0.7368421052631579
BF-B,0.0010861923869778267,0.007446931833359385,"EnhancedDirectionPredictionModel(
  (lstm): LSTM(8, 64, num_layers=3, batch_first=True, dropout=0.2)
  (dropout): Dropout(p=0.2, inplace=False)
  (attention): Linear(in_features=64, out_features=1, bias=True)
  (fc1): Linear(in_features=64, out_features=32, bias=True)
  (fc2): Linear(in_features=32, out_features=2, bias=True)
  (leaky_relu): LeakyReLU(negative_slope=0.01)
  (softmax): Softmax(dim=1)
)","[('delta_open', 'BF-B'), ('delta_high', 'BF-B'), ('delta_low', 'BF-B'), ('price_location_5d', 'BF-B'), ('price_to_ma_5d', 'BF-B'), ('avg_return_5d', 'BF-B'), ('price_location_20d', 'BF-B'), ('price_to_ma_20d', 'BF-B')]",0.65,0.5981308411214953,0.5714285714285714
BG,0.00012722149794444144,0.006839015117049905,"EnhancedDirectionPredictionModel(
  (lstm): LSTM(8, 64, num_layers=3, batch_first=True, dropout=0.2)
  (dropout): Dropout(p=0.2, inplace=False)
  (attention): Linear(in_features=64, out_features=1, bias=True)
  (fc1): Linear(in_features=64, out_features=32, bias=True)
  (fc2): Linear(in_features=32, out_features=2, bias=True)
  (leaky_relu): LeakyReLU(negative_slope=0.01)
  (softmax): Softmax(dim=1)
)","[('avg_range_20d', 'BG'), ('avg_range_5d', 'BG'), ('avg_std_20d', 'BG'), ('price_to_ma_5d', 'BG'), ('delta_open', 'BG'), ('avg_volume_5d', 'BG'), ('delta_volume', 'BG'), ('avg_return_5d', 'BG')]",0.65,0.4953271028037383,0.5
BIIB,-0.0010348846343456453,0.0071860903538975745,"EnhancedDirectionPredictionModel(
  (lstm): LSTM(8, 64, num_layers=3, batch_first=True, dropout=0.2)
  (dropout): Dropout(p=0.2, inplace=False)
  (attention): Linear(in_features=64, out_features=1, bias=True)
  (fc1): Linear(in_features=64, out_features=32, bias=True)
  (fc2): Linear(in_features=32, out_features=2, bias=True)
  (leaky_relu): LeakyReLU(negative_slope=0.01)
  (softmax): Softmax(dim=1)
)","[('delta_high', 'BIIB'), ('delta_range', 'BIIB'), ('return', 'BIIB'), ('price_to_ma_20d', 'BIIB'), ('avg_return_20d', 'BIIB'), ('delta_overnight', 'BIIB'), ('price_to_ma_5d', 'BIIB'), ('avg_volume_5d', 'BIIB')]",0.65,0.4953271028037383,0.4807692307692308
BK,0.0006510331216165634,0.007065146676813729,"EnhancedDirectionPredictionModel(
  (lstm): LSTM(8, 64, num_layers=3, batch_first=True, dropout=0.2)
  (dropout): Dropout(p=0.2, inplace=False)
  (attention): Linear(in_features=64, out_features=1, bias=True)
  (fc1): Linear(in_features=64, out_features=32, bias=True)
  (fc2): Linear(in_features=32, out_features=2, bias=True)
  (leaky_relu): LeakyReLU(negative_slope=0.01)
  (softmax): Softmax(dim=1)
)","[('avg_volume_5d', 'BK'), ('avg_volume_60d', 'BK'), ('price_location_60d', 'BK'), ('price_location_20d', 'BK'), ('delta_open', 'BK'), ('avg_return_60d', 'BK'), ('avg_return_20d', 'BK'), ('avg_std_5d', 'BK')]",0.65,0.5046728971962616,0.5531914893617021
BKNG,0.0015518197396853176,0.007885119181310239,"EnhancedDirectionPredictionModel(
  (lstm): LSTM(8, 64, num_layers=3, batch_first=True, dropout=0.2)
  (dropout): Dropout(p=0.2, inplace=False)
  (attention): Linear(in_features=64, out_features=1, bias=True)
  (fc1): Linear(in_features=64, out_features=32, bias=True)
  (fc2): Linear(in_features=32, out_features=2, bias=True)
  (leaky_relu): LeakyReLU(negative_slope=0.01)
  (softmax): Softmax(dim=1)
)","[('avg_std_5d', 'BKNG'), ('avg_std_60d', 'BKNG'), ('delta_high', 'BKNG'), ('price_to_ma_5d', 'BKNG'), ('avg_range_60d', 'BKNG'), ('delta_open', 'BKNG'), ('price_location_20d', 'BKNG'), ('price_location_60d', 'BKNG')]",0.65,0.616822429906542,0.6119402985074627
BKR,-0.00038661190107860255,0.008282868533724912,"EnhancedDirectionPredictionModel(
  (lstm): LSTM(8, 64, num_layers=3, batch_first=True, dropout=0.2)
  (dropout): Dropout(p=0.2, inplace=False)
  (attention): Linear(in_features=64, out_features=1, bias=True)
  (fc1): Linear(in_features=64, out_features=32, bias=True)
  (fc2): Linear(in_features=32, out_features=2, bias=True)
  (leaky_relu): LeakyReLU(negative_slope=0.01)
  (softmax): Softmax(dim=1)
)","[('price_location_60d', 'BKR'), ('price_location_5d', 'BKR'), ('price_location_20d', 'BKR'), ('price_to_ma_60d', 'BKR'), ('avg_volume_20d', 'BKR'), ('avg_return_5d', 'BKR'), ('avg_volume_5d', 'BKR'), ('avg_range_20d', 'BKR')]",0.65,0.4672897196261682,0.2857142857142857
BLDR,-0.002098596651162751,0.00960826739758464,"EnhancedDirectionPredictionModel(
  (lstm): LSTM(8, 64, num_layers=3, batch_first=True, dropout=0.2)
  (dropout): Dropout(p=0.2, inplace=False)
  (attention): Linear(in_features=64, out_features=1, bias=True)
  (fc1): Linear(in_features=64, out_features=32, bias=True)
  (fc2): Linear(in_features=32, out_features=2, bias=True)
  (leaky_relu): LeakyReLU(negative_slope=0.01)
  (softmax): Softmax(dim=1)
)","[('avg_return_5d', 'BLDR'), ('avg_return_60d', 'BLDR'), ('delta_high', 'BLDR'), ('avg_range_5d', 'BLDR'), ('price_to_ma_5d', 'BLDR'), ('delta_low', 'BLDR'), ('price_to_ma_20d', 'BLDR'), ('price_location_60d', 'BLDR')]",0.65,0.4672897196261682,0.3611111111111111
BLK,-0.002316407924788504,0.006747791694976881,"EnhancedDirectionPredictionModel(
  (lstm): LSTM(8, 64, num_layers=3, batch_first=True, dropout=0.2)
  (dropout): Dropout(p=0.2, inplace=False)
  (attention): Linear(in_features=64, out_features=1, bias=True)
  (fc1): Linear(in_features=64, out_features=32, bias=True)
  (fc2): Linear(in_features=32, out_features=2, bias=True)
  (leaky_relu): LeakyReLU(negative_slope=0.01)
  (softmax): Softmax(dim=1)
)","[('price_location_60d', 'BLK'), ('price_location_20d', 'BLK'), ('price_to_ma_20d', 'BLK'), ('avg_return_20d', 'BLK'), ('price_to_ma_5d', 'BLK'), ('price_location_5d', 'BLK'), ('price_to_ma_60d', 'BLK'), ('avg_std_5d', 'BLK')]",0.65,0.4485981308411215,0.40476190476190477
BMY,0.0,0.006827166375296897,"EnhancedDirectionPredictionModel(
  (lstm): LSTM(8, 64, num_layers=3, batch_first=True, dropout=0.2)
  (dropout): Dropout(p=0.2, inplace=False)
  (attention): Linear(in_features=64, out_features=1, bias=True)
  (fc1): Linear(in_features=64, out_features=32, bias=True)
  (fc2): Linear(in_features=32, out_features=2, bias=True)
  (leaky_relu): LeakyReLU(negative_slope=0.01)
  (softmax): Softmax(dim=1)
)","[('avg_range_60d', 'BMY'), ('avg_range_5d', 'BMY'), ('avg_std_60d', 'BMY'), ('avg_range_20d', 'BMY'), ('delta_open', 'BMY'), ('avg_volume_5d', 'BMY'), ('delta_overnight', 'BMY'), ('price_to_ma_5d', 'BMY')]",0.65,0.4205607476635514,0.0
BR,0.0,0.005534485078089537,"EnhancedDirectionPredictionModel(
  (lstm): LSTM(8, 64, num_layers=3, batch_first=True, dropout=0.2)
  (dropout): Dropout(p=0.2, inplace=False)
  (attention): Linear(in_features=64, out_features=1, bias=True)
  (fc1): Linear(in_features=64, out_features=32, bias=True)
  (fc2): Linear(in_features=32, out_features=2, bias=True)
  (leaky_relu): LeakyReLU(negative_slope=0.01)
  (softmax): Softmax(dim=1)
)","[('avg_return_60d', 'BR'), ('price_location_60d', 'BR'), ('price_to_ma_60d', 'BR'), ('avg_volume_20d', 'BR'), ('avg_volume_5d', 'BR'), ('avg_range_20d', 'BR'), ('avg_return_20d', 'BR'), ('price_to_ma_20d', 'BR')]",0.65,0.4205607476635514,0.0
BRK-B,0.0,0.005592857755742687,"EnhancedDirectionPredictionModel(
  (lstm): LSTM(8, 64, num_layers=3, batch_first=True, dropout=0.2)
  (dropout): Dropout(p=0.2, inplace=False)
  (attention): Linear(in_features=64, out_features=1, bias=True)
  (fc1): Linear(in_features=64, out_features=32, bias=True)
  (fc2): Linear(in_features=32, out_features=2, bias=True)
  (leaky_relu): LeakyReLU(negative_slope=0.01)
  (softmax): Softmax(dim=1)
)","[('price_location_20d', 'BRK-B'), ('return', 'BRK-B'), ('delta_intraday', 'BRK-B'), ('avg_range_60d', 'BRK-B'), ('avg_return_20d', 'BRK-B'), ('avg_std_60d', 'BRK-B'), ('price_location_5d', 'BRK-B'), ('delta_low', 'BRK-B')]",0.65,0.4392523364485981,0.0
BRO,6.592433485023546e-05,0.005527706302925703,"EnhancedDirectionPredictionModel(
  (lstm): LSTM(8, 64, num_layers=3, batch_first=True, dropout=0.2)
  (dropout): Dropout(p=0.2, inplace=False)
  (attention): Linear(in_features=64, out_features=1, bias=True)
  (fc1): Linear(in_features=64, out_features=32, bias=True)
  (fc2): Linear(in_features=32, out_features=2, bias=True)
  (leaky_relu): LeakyReLU(negative_slope=0.01)
  (softmax): Softmax(dim=1)
)","[('avg_volume_20d', 'BRO'), ('avg_volume_60d', 'BRO'), ('price_location_5d', 'BRO'), ('delta_open', 'BRO'), ('avg_std_60d', 'BRO'), ('delta_volume', 'BRO'), ('avg_range_60d', 'BRO'), ('avg_volume_5d', 'BRO')]",0.65,0.5233644859813084,0.6486486486486487
BSX,0.001026176081810018,0.006637733329954373,"EnhancedDirectionPredictionModel(
  (lstm): LSTM(8, 64, num_layers=3, batch_first=True, dropout=0.2)
  (dropout): Dropout(p=0.2, inplace=False)
  (attention): Linear(in_features=64, out_features=1, bias=True)
  (fc1): Linear(in_features=64, out_features=32, bias=True)
  (fc2): Linear(in_features=32, out_features=2, bias=True)
  (leaky_relu): LeakyReLU(negative_slope=0.01)
  (softmax): Softmax(dim=1)
)","[('price_to_ma_20d', 'BSX'), ('avg_return_5d', 'BSX'), ('delta_range', 'BSX'), ('price_to_ma_5d', 'BSX'), ('price_location_20d', 'BSX'), ('price_location_5d', 'BSX'), ('delta_volume', 'BSX'), ('avg_return_20d', 'BSX')]",0.65,0.5420560747663551,0.7142857142857143
BX,-0.00014600099573543204,0.009668470957934763,"EnhancedDirectionPredictionModel(
  (lstm): LSTM(8, 64, num_layers=3, batch_first=True, dropout=0.2)
  (dropout): Dropout(p=0.2, inplace=False)
  (attention): Linear(in_features=64, out_features=1, bias=True)
  (fc1): Linear(in_features=64, out_features=32, bias=True)
  (fc2): Linear(in_features=32, out_features=2, bias=True)
  (leaky_relu): LeakyReLU(negative_slope=0.01)
  (softmax): Softmax(dim=1)
)","[('avg_std_60d', 'BX'), ('avg_std_20d', 'BX'), ('avg_range_60d', 'BX'), ('avg_std_5d', 'BX'), ('avg_range_20d', 'BX'), ('delta_volume', 'BX'), ('avg_return_5d', 'BX'), ('delta_intraday', 'BX')]",0.65,0.5887850467289719,0.5254237288135594
BXP,0.00044087474318762695,0.007675665674575805,"EnhancedDirectionPredictionModel(
  (lstm): LSTM(8, 64, num_layers=3, batch_first=True, dropout=0.2)
  (dropout): Dropout(p=0.2, inplace=False)
  (attention): Linear(in_features=64, out_features=1, bias=True)
  (fc1): Linear(in_features=64, out_features=32, bias=True)
  (fc2): Linear(in_features=32, out_features=2, bias=True)
  (leaky_relu): LeakyReLU(negative_slope=0.01)
  (softmax): Softmax(dim=1)
)","[('avg_return_5d', 'BXP'), ('delta_overnight', 'BXP'), ('price_location_5d', 'BXP'), ('price_location_20d', 'BXP'), ('price_to_ma_20d', 'BXP'), ('delta_volume', 'BXP'), ('delta_high', 'BXP'), ('avg_volume_20d', 'BXP')]",0.65,0.5420560747663551,0.6086956521739131
C,-0.0007668292340047082,0.008763941648919209,"EnhancedDirectionPredictionModel(
  (lstm): LSTM(8, 64, num_layers=3, batch_first=True, dropout=0.2)
  (dropout): Dropout(p=0.2, inplace=False)
  (attention): Linear(in_features=64, out_features=1, bias=True)
  (fc1): Linear(in_features=64, out_features=32, bias=True)
  (fc2): Linear(in_features=32, out_features=2, bias=True)
  (leaky_relu): LeakyReLU(negative_slope=0.01)
  (softmax): Softmax(dim=1)
)","[('delta_open', 'C'), ('avg_std_20d', 'C'), ('avg_range_20d', 'C'), ('avg_volume_20d', 'C'), ('delta_range', 'C'), ('delta_high', 'C'), ('delta_overnight', 'C'), ('price_to_ma_5d', 'C')]",0.65,0.5046728971962616,0.5882352941176471
CAG,-0.0009757881083629471,0.005817324804445022,"EnhancedDirectionPredictionModel(
  (lstm): LSTM(8, 64, num_layers=3, batch_first=True, dropout=0.2)
  (dropout): Dropout(p=0.2, inplace=False)
  (attention): Linear(in_features=64, out_features=1, bias=True)
  (fc1): Linear(in_features=64, out_features=32, bias=True)
  (fc2): Linear(in_features=32, out_features=2, bias=True)
  (leaky_relu): LeakyReLU(negative_slope=0.01)
  (softmax): Softmax(dim=1)
)","[('avg_volume_20d', 'CAG'), ('avg_return_5d', 'CAG'), ('avg_range_60d', 'CAG'), ('price_location_5d', 'CAG'), ('price_to_ma_5d', 'CAG'), ('avg_std_60d', 'CAG'), ('price_to_ma_20d', 'CAG'), ('delta_intraday', 'CAG')]",0.65,0.5233644859813084,0.4745762711864407
CAH,0.000993937229366431,0.006491751336261856,"EnhancedDirectionPredictionModel(
  (lstm): LSTM(8, 64, num_layers=3, batch_first=True, dropout=0.2)
  (dropout): Dropout(p=0.2, inplace=False)
  (attention): Linear(in_features=64, out_features=1, bias=True)
  (fc1): Linear(in_features=64, out_features=32, bias=True)
  (fc2): Linear(in_features=32, out_features=2, bias=True)
  (leaky_relu): LeakyReLU(negative_slope=0.01)
  (softmax): Softmax(dim=1)
)","[('avg_std_60d', 'CAH'), ('avg_volume_60d', 'CAH'), ('avg_return_60d', 'CAH'), ('delta_low', 'CAH'), ('avg_volume_5d', 'CAH'), ('delta_range', 'CAH'), ('delta_volume', 'CAH'), ('delta_open', 'CAH')]",0.65,0.40186915887850466,0.5555555555555556
CARR,0.0,0.00904380310349323,"EnhancedDirectionPredictionModel(
  (lstm): LSTM(8, 64, num_layers=3, batch_first=True, dropout=0.2)
  (dropout): Dropout(p=0.2, inplace=False)
  (attention): Linear(in_features=64, out_features=1, bias=True)
  (fc1): Linear(in_features=64, out_features=32, bias=True)
  (fc2): Linear(in_features=32, out_features=2, bias=True)
  (leaky_relu): LeakyReLU(negative_slope=0.01)
  (softmax): Softmax(dim=1)
)","[('delta_range', 'CARR'), ('avg_volume_60d', 'CARR'), ('price_location_5d', 'CARR'), ('delta_overnight', 'CARR'), ('delta_high', 'CARR'), ('price_to_ma_5d', 'CARR'), ('delta_volume', 'CARR'), ('avg_range_20d', 'CARR')]",0.65,0.48598130841121495,0.0
CAT,1.3336051598618247e-05,0.007274058648987615,"EnhancedDirectionPredictionModel(
  (lstm): LSTM(8, 64, num_layers=3, batch_first=True, dropout=0.2)
  (dropout): Dropout(p=0.2, inplace=False)
  (attention): Linear(in_features=64, out_features=1, bias=True)
  (fc1): Linear(in_features=64, out_features=32, bias=True)
  (fc2): Linear(in_features=32, out_features=2, bias=True)
  (leaky_relu): LeakyReLU(negative_slope=0.01)
  (softmax): Softmax(dim=1)
)","[('delta_open', 'CAT'), ('price_location_60d', 'CAT'), ('delta_volume', 'CAT'), ('price_location_20d', 'CAT'), ('delta_low', 'CAT'), ('price_to_ma_20d', 'CAT'), ('avg_return_60d', 'CAT'), ('price_location_5d', 'CAT')]",0.65,0.5233644859813084,0.47368421052631576
CB,-0.00028601516960639884,0.005697915047668527,"EnhancedDirectionPredictionModel(
  (lstm): LSTM(8, 64, num_layers=3, batch_first=True, dropout=0.2)
  (dropout): Dropout(p=0.2, inplace=False)
  (attention): Linear(in_features=64, out_features=1, bias=True)
  (fc1): Linear(in_features=64, out_features=32, bias=True)
  (fc2): Linear(in_features=32, out_features=2, bias=True)
  (leaky_relu): LeakyReLU(negative_slope=0.01)
  (softmax): Softmax(dim=1)
)","[('price_location_20d', 'CB'), ('price_to_ma_20d', 'CB'), ('price_to_ma_5d', 'CB'), ('price_to_ma_60d', 'CB'), ('price_location_60d', 'CB'), ('avg_return_20d', 'CB'), ('avg_range_5d', 'CB'), ('price_location_5d', 'CB')]",0.65,0.4953271028037383,0.5476190476190477
CBOE,0.0007038615876432158,0.007033609389235306,"EnhancedDirectionPredictionModel(
  (lstm): LSTM(8, 64, num_layers=3, batch_first=True, dropout=0.2)
  (dropout): Dropout(p=0.2, inplace=False)
  (attention): Linear(in_features=64, out_features=1, bias=True)
  (fc1): Linear(in_features=64, out_features=32, bias=True)
  (fc2): Linear(in_features=32, out_features=2, bias=True)
  (leaky_relu): LeakyReLU(negative_slope=0.01)
  (softmax): Softmax(dim=1)
)","[('price_location_5d', 'CBOE'), ('price_to_ma_5d', 'CBOE'), ('delta_high', 'CBOE'), ('price_location_20d', 'CBOE'), ('price_to_ma_20d', 'CBOE'), ('avg_return_5d', 'CBOE'), ('delta_open', 'CBOE'), ('return', 'CBOE')]",0.65,0.514018691588785,0.6153846153846154
CBRE,-0.0002664435144591356,0.007957727576945432,"EnhancedDirectionPredictionModel(
  (lstm): LSTM(8, 64, num_layers=3, batch_first=True, dropout=0.2)
  (dropout): Dropout(p=0.2, inplace=False)
  (attention): Linear(in_features=64, out_features=1, bias=True)
  (fc1): Linear(in_features=64, out_features=32, bias=True)
  (fc2): Linear(in_features=32, out_features=2, bias=True)
  (leaky_relu): LeakyReLU(negative_slope=0.01)
  (softmax): Softmax(dim=1)
)","[('avg_volume_60d', 'CBRE'), ('avg_volume_20d', 'CBRE'), ('avg_range_20d', 'CBRE'), ('avg_std_5d', 'CBRE'), ('avg_range_60d', 'CBRE'), ('avg_std_60d', 'CBRE'), ('delta_overnight', 'CBRE'), ('delta_range', 'CBRE')]",0.65,0.5327102803738317,0.5409836065573771
CCI,0.00043213587255092214,0.007643293810468963,"EnhancedDirectionPredictionModel(
  (lstm): LSTM(8, 64, num_layers=3, batch_first=True, dropout=0.2)
  (dropout): Dropout(p=0.2, inplace=False)
  (attention): Linear(in_features=64, out_features=1, bias=True)
  (fc1): Linear(in_features=64, out_features=32, bias=True)
  (fc2): Linear(in_features=32, out_features=2, bias=True)
  (leaky_relu): LeakyReLU(negative_slope=0.01)
  (softmax): Softmax(dim=1)
)","[('delta_overnight', 'CCI'), ('delta_open', 'CCI'), ('delta_high', 'CCI'), ('avg_std_20d', 'CCI'), ('delta_low', 'CCI'), ('price_location_60d', 'CCI'), ('delta_intraday', 'CCI'), ('avg_std_60d', 'CCI')]",0.65,0.5327102803738317,0.6153846153846154
CCL,0.0015386344062873266,0.011735620854583477,"EnhancedDirectionPredictionModel(
  (lstm): LSTM(8, 64, num_layers=3, batch_first=True, dropout=0.2)
  (dropout): Dropout(p=0.2, inplace=False)
  (attention): Linear(in_features=64, out_features=1, bias=True)
  (fc1): Linear(in_features=64, out_features=32, bias=True)
  (fc2): Linear(in_features=32, out_features=2, bias=True)
  (leaky_relu): LeakyReLU(negative_slope=0.01)
  (softmax): Softmax(dim=1)
)","[('avg_std_20d', 'CCL'), ('avg_volume_20d', 'CCL'), ('delta_open', 'CCL'), ('delta_volume', 'CCL'), ('price_location_20d', 'CCL'), ('avg_return_20d', 'CCL'), ('price_location_5d', 'CCL'), ('avg_range_20d', 'CCL')]",0.65,0.5233644859813084,0.5789473684210527
CDNS,0.0003531348494830068,0.009555482723820995,"EnhancedDirectionPredictionModel(
  (lstm): LSTM(8, 64, num_layers=3, batch_first=True, dropout=0.2)
  (dropout): Dropout(p=0.2, inplace=False)
  (attention): Linear(in_features=64, out_features=1, bias=True)
  (fc1): Linear(in_features=64, out_features=32, bias=True)
  (fc2): Linear(in_features=32, out_features=2, bias=True)
  (leaky_relu): LeakyReLU(negative_slope=0.01)
  (softmax): Softmax(dim=1)
)","[('delta_high', 'CDNS'), ('delta_open', 'CDNS'), ('delta_range', 'CDNS'), ('avg_std_60d', 'CDNS'), ('delta_intraday', 'CDNS'), ('avg_volume_60d', 'CDNS'), ('delta_overnight', 'CDNS'), ('price_to_ma_60d', 'CDNS')]",0.65,0.48598130841121495,1.0
CDW,0.00021341591138245784,0.008408068017491705,"EnhancedDirectionPredictionModel(
  (lstm): LSTM(8, 64, num_layers=3, batch_first=True, dropout=0.2)
  (dropout): Dropout(p=0.2, inplace=False)
  (attention): Linear(in_features=64, out_features=1, bias=True)
  (fc1): Linear(in_features=64, out_features=32, bias=True)
  (fc2): Linear(in_features=32, out_features=2, bias=True)
  (leaky_relu): LeakyReLU(negative_slope=0.01)
  (softmax): Softmax(dim=1)
)","[('avg_return_60d', 'CDW'), ('price_to_ma_60d', 'CDW'), ('price_to_ma_20d', 'CDW'), ('price_location_60d', 'CDW'), ('avg_return_20d', 'CDW'), ('avg_volume_20d', 'CDW'), ('avg_volume_5d', 'CDW'), ('avg_range_5d', 'CDW')]",0.65,0.5327102803738317,0.5862068965517241
CF,-0.00016387163928086425,0.008360044897066137,"EnhancedDirectionPredictionModel(
  (lstm): LSTM(8, 64, num_layers=3, batch_first=True, dropout=0.2)
  (dropout): Dropout(p=0.2, inplace=False)
  (attention): Linear(in_features=64, out_features=1, bias=True)
  (fc1): Linear(in_features=64, out_features=32, bias=True)
  (fc2): Linear(in_features=32, out_features=2, bias=True)
  (leaky_relu): LeakyReLU(negative_slope=0.01)
  (softmax): Softmax(dim=1)
)","[('delta_low', 'CF'), ('delta_high', 'CF'), ('avg_return_20d', 'CF'), ('avg_return_60d', 'CF'), ('price_to_ma_5d', 'CF'), ('price_to_ma_60d', 'CF'), ('price_location_5d', 'CF'), ('price_to_ma_20d', 'CF')]",0.65,0.4205607476635514,0.5263157894736842
CFG,-0.00047655592445275424,0.007921532946773873,"EnhancedDirectionPredictionModel(
  (lstm): LSTM(8, 64, num_layers=3, batch_first=True, dropout=0.2)
  (dropout): Dropout(p=0.2, inplace=False)
  (attention): Linear(in_features=64, out_features=1, bias=True)
  (fc1): Linear(in_features=64, out_features=32, bias=True)
  (fc2): Linear(in_features=32, out_features=2, bias=True)
  (leaky_relu): LeakyReLU(negative_slope=0.01)
  (softmax): Softmax(dim=1)
)","[('avg_return_5d', 'CFG'), ('price_location_5d', 'CFG'), ('price_to_ma_5d', 'CFG'), ('avg_volume_5d', 'CFG'), ('price_to_ma_20d', 'CFG'), ('delta_range', 'CFG'), ('delta_high', 'CFG'), ('delta_intraday', 'CFG')]",0.65,0.5046728971962616,0.5862068965517241
CHD,-0.00044153491570292824,0.005188040650741586,"EnhancedDirectionPredictionModel(
  (lstm): LSTM(8, 64, num_layers=3, batch_first=True, dropout=0.2)
  (dropout): Dropout(p=0.2, inplace=False)
  (attention): Linear(in_features=64, out_features=1, bias=True)
  (fc1): Linear(in_features=64, out_features=32, bias=True)
  (fc2): Linear(in_features=32, out_features=2, bias=True)
  (leaky_relu): LeakyReLU(negative_slope=0.01)
  (softmax): Softmax(dim=1)
)","[('avg_std_5d', 'CHD'), ('delta_low', 'CHD'), ('avg_return_60d', 'CHD'), ('delta_overnight', 'CHD'), ('return', 'CHD'), ('delta_open', 'CHD'), ('price_location_60d', 'CHD'), ('avg_return_20d', 'CHD')]",0.65,0.4485981308411215,0.4411764705882353
CHRW,0.0008943694440774656,0.006349986279911895,"EnhancedDirectionPredictionModel(
  (lstm): LSTM(8, 64, num_layers=3, batch_first=True, dropout=0.2)
  (dropout): Dropout(p=0.2, inplace=False)
  (attention): Linear(in_features=64, out_features=1, bias=True)
  (fc1): Linear(in_features=64, out_features=32, bias=True)
  (fc2): Linear(in_features=32, out_features=2, bias=True)
  (leaky_relu): LeakyReLU(negative_slope=0.01)
  (softmax): Softmax(dim=1)
)","[('price_to_ma_20d', 'CHRW'), ('price_to_ma_60d', 'CHRW'), ('avg_volume_60d', 'CHRW'), ('delta_overnight', 'CHRW'), ('price_location_20d', 'CHRW'), ('avg_return_5d', 'CHRW'), ('avg_std_20d', 'CHRW'), ('price_location_60d', 'CHRW')]",0.65,0.514018691588785,0.4634146341463415
CHTR,0.0021497164537000535,0.009185851110435241,"EnhancedDirectionPredictionModel(
  (lstm): LSTM(8, 64, num_layers=3, batch_first=True, dropout=0.2)
  (dropout): Dropout(p=0.2, inplace=False)
  (attention): Linear(in_features=64, out_features=1, bias=True)
  (fc1): Linear(in_features=64, out_features=32, bias=True)
  (fc2): Linear(in_features=32, out_features=2, bias=True)
  (leaky_relu): LeakyReLU(negative_slope=0.01)
  (softmax): Softmax(dim=1)
)","[('return', 'CHTR'), ('delta_low', 'CHTR'), ('delta_volume', 'CHTR'), ('avg_volume_60d', 'CHTR'), ('avg_volume_5d', 'CHTR'), ('avg_range_20d', 'CHTR'), ('delta_overnight', 'CHTR'), ('avg_std_20d', 'CHTR')]",0.65,0.5794392523364486,0.6774193548387096
CI,0.00221845235092573,0.007490257677637741,"EnhancedDirectionPredictionModel(
  (lstm): LSTM(8, 64, num_layers=3, batch_first=True, dropout=0.2)
  (dropout): Dropout(p=0.2, inplace=False)
  (attention): Linear(in_features=64, out_features=1, bias=True)
  (fc1): Linear(in_features=64, out_features=32, bias=True)
  (fc2): Linear(in_features=32, out_features=2, bias=True)
  (leaky_relu): LeakyReLU(negative_slope=0.01)
  (softmax): Softmax(dim=1)
)","[('delta_range', 'CI'), ('avg_volume_60d', 'CI'), ('avg_std_20d', 'CI'), ('avg_range_20d', 'CI'), ('avg_range_5d', 'CI'), ('avg_std_60d', 'CI'), ('delta_low', 'CI'), ('avg_return_60d', 'CI')]",0.65,0.5794392523364486,0.5952380952380952
CINF,0.0004802276983554558,0.006544815172676297,"EnhancedDirectionPredictionModel(
  (lstm): LSTM(8, 64, num_layers=3, batch_first=True, dropout=0.2)
  (dropout): Dropout(p=0.2, inplace=False)
  (attention): Linear(in_features=64, out_features=1, bias=True)
  (fc1): Linear(in_features=64, out_features=32, bias=True)
  (fc2): Linear(in_features=32, out_features=2, bias=True)
  (leaky_relu): LeakyReLU(negative_slope=0.01)
  (softmax): Softmax(dim=1)
)","[('avg_return_20d', 'CINF'), ('price_to_ma_20d', 'CINF'), ('price_location_20d', 'CINF'), ('avg_return_5d', 'CINF'), ('price_to_ma_60d', 'CINF'), ('delta_volume', 'CINF'), ('delta_open', 'CINF'), ('price_to_ma_5d', 'CINF')]",0.65,0.5046728971962616,0.5151515151515151
CL,0.0,0.005718258863153453,"EnhancedDirectionPredictionModel(
  (lstm): LSTM(8, 64, num_layers=3, batch_first=True, dropout=0.2)
  (dropout): Dropout(p=0.2, inplace=False)
  (attention): Linear(in_features=64, out_features=1, bias=True)
  (fc1): Linear(in_features=64, out_features=32, bias=True)
  (fc2): Linear(in_features=32, out_features=2, bias=True)
  (leaky_relu): LeakyReLU(negative_slope=0.01)
  (softmax): Softmax(dim=1)
)","[('avg_volume_20d', 'CL'), ('avg_return_60d', 'CL'), ('delta_intraday', 'CL'), ('avg_std_20d', 'CL'), ('avg_std_5d', 'CL'), ('return', 'CL'), ('price_to_ma_60d', 'CL'), ('avg_range_5d', 'CL')]",0.65,0.48598130841121495,0.0
CLX,0.0,0.00512887724059072,"EnhancedDirectionPredictionModel(
  (lstm): LSTM(8, 64, num_layers=3, batch_first=True, dropout=0.2)
  (dropout): Dropout(p=0.2, inplace=False)
  (attention): Linear(in_features=64, out_features=1, bias=True)
  (fc1): Linear(in_features=64, out_features=32, bias=True)
  (fc2): Linear(in_features=32, out_features=2, bias=True)
  (leaky_relu): LeakyReLU(negative_slope=0.01)
  (softmax): Softmax(dim=1)
)","[('delta_low', 'CLX'), ('delta_open', 'CLX'), ('delta_range', 'CLX'), ('delta_high', 'CLX'), ('delta_overnight', 'CLX'), ('avg_volume_5d', 'CLX'), ('delta_volume', 'CLX'), ('return', 'CLX')]",0.65,0.4953271028037383,0.0
CMCSA,-4.996136380117167e-05,0.006004225318549013,"EnhancedDirectionPredictionModel(
  (lstm): LSTM(8, 64, num_layers=3, batch_first=True, dropout=0.2)
  (dropout): Dropout(p=0.2, inplace=False)
  (attention): Linear(in_features=64, out_features=1, bias=True)
  (fc1): Linear(in_features=64, out_features=32, bias=True)
  (fc2): Linear(in_features=32, out_features=2, bias=True)
  (leaky_relu): LeakyReLU(negative_slope=0.01)
  (softmax): Softmax(dim=1)
)","[('avg_return_5d', 'CMCSA'), ('avg_volume_60d', 'CMCSA'), ('price_location_20d', 'CMCSA'), ('price_to_ma_20d', 'CMCSA'), ('price_to_ma_5d', 'CMCSA'), ('avg_volume_20d', 'CMCSA'), ('avg_return_20d', 'CMCSA'), ('price_to_ma_60d', 'CMCSA')]",0.65,0.4672897196261682,0.5416666666666666
CME,0.0,0.005702136769355244,"EnhancedDirectionPredictionModel(
  (lstm): LSTM(8, 64, num_layers=3, batch_first=True, dropout=0.2)
  (dropout): Dropout(p=0.2, inplace=False)
  (attention): Linear(in_features=64, out_features=1, bias=True)
  (fc1): Linear(in_features=64, out_features=32, bias=True)
  (fc2): Linear(in_features=32, out_features=2, bias=True)
  (leaky_relu): LeakyReLU(negative_slope=0.01)
  (softmax): Softmax(dim=1)
)","[('delta_range', 'CME'), ('price_location_20d', 'CME'), ('price_location_5d', 'CME'), ('price_to_ma_20d', 'CME'), ('avg_volume_60d', 'CME'), ('avg_std_5d', 'CME'), ('avg_range_5d', 'CME'), ('avg_std_60d', 'CME')]",0.65,0.38317757009345793,0.0
CMG,-0.0007492366594003744,0.007057744104245257,"EnhancedDirectionPredictionModel(
  (lstm): LSTM(8, 64, num_layers=3, batch_first=True, dropout=0.2)
  (dropout): Dropout(p=0.2, inplace=False)
  (attention): Linear(in_features=64, out_features=1, bias=True)
  (fc1): Linear(in_features=64, out_features=32, bias=True)
  (fc2): Linear(in_features=32, out_features=2, bias=True)
  (leaky_relu): LeakyReLU(negative_slope=0.01)
  (softmax): Softmax(dim=1)
)","[('delta_low', 'CMG'), ('price_location_60d', 'CMG'), ('avg_range_20d', 'CMG'), ('avg_return_60d', 'CMG'), ('price_to_ma_60d', 'CMG'), ('return', 'CMG'), ('price_to_ma_20d', 'CMG'), ('delta_range', 'CMG')]",0.65,0.5607476635514018,0.4
CMI,7.319677708088011e-05,0.007264569916929464,"EnhancedDirectionPredictionModel(
  (lstm): LSTM(8, 64, num_layers=3, batch_first=True, dropout=0.2)
  (dropout): Dropout(p=0.2, inplace=False)
  (attention): Linear(in_features=64, out_features=1, bias=True)
  (fc1): Linear(in_features=64, out_features=32, bias=True)
  (fc2): Linear(in_features=32, out_features=2, bias=True)
  (leaky_relu): LeakyReLU(negative_slope=0.01)
  (softmax): Softmax(dim=1)
)","[('avg_volume_20d', 'CMI'), ('avg_volume_60d', 'CMI'), ('avg_std_20d', 'CMI'), ('avg_range_20d', 'CMI'), ('price_to_ma_5d', 'CMI'), ('avg_return_5d', 'CMI'), ('price_to_ma_60d', 'CMI'), ('delta_high', 'CMI')]",0.65,0.5327102803738317,0.5227272727272727
CMS,0.0,0.005251201135583545,"EnhancedDirectionPredictionModel(
  (lstm): LSTM(8, 64, num_layers=3, batch_first=True, dropout=0.2)
  (dropout): Dropout(p=0.2, inplace=False)
  (attention): Linear(in_features=64, out_features=1, bias=True)
  (fc1): Linear(in_features=64, out_features=32, bias=True)
  (fc2): Linear(in_features=32, out_features=2, bias=True)
  (leaky_relu): LeakyReLU(negative_slope=0.01)
  (softmax): Softmax(dim=1)
)","[('avg_return_60d', 'CMS'), ('price_to_ma_60d', 'CMS'), ('avg_volume_60d', 'CMS'), ('avg_range_20d', 'CMS'), ('avg_range_5d', 'CMS'), ('price_location_60d', 'CMS'), ('delta_open', 'CMS'), ('delta_volume', 'CMS')]",0.65,0.3925233644859813,0.0
CNC,0.001187532033213748,0.007844130975280333,"EnhancedDirectionPredictionModel(
  (lstm): LSTM(8, 64, num_layers=3, batch_first=True, dropout=0.2)
  (dropout): Dropout(p=0.2, inplace=False)
  (attention): Linear(in_features=64, out_features=1, bias=True)
  (fc1): Linear(in_features=64, out_features=32, bias=True)
  (fc2): Linear(in_features=32, out_features=2, bias=True)
  (leaky_relu): LeakyReLU(negative_slope=0.01)
  (softmax): Softmax(dim=1)
)","[('delta_intraday', 'CNC'), ('delta_overnight', 'CNC'), ('price_location_5d', 'CNC'), ('avg_range_5d', 'CNC'), ('price_to_ma_20d', 'CNC'), ('price_location_20d', 'CNC'), ('avg_return_20d', 'CNC'), ('delta_high', 'CNC')]",0.65,0.5514018691588785,0.5294117647058824
CNP,0.0,0.005347244611040253,"EnhancedDirectionPredictionModel(
  (lstm): LSTM(8, 64, num_layers=3, batch_first=True, dropout=0.2)
  (dropout): Dropout(p=0.2, inplace=False)
  (attention): Linear(in_features=64, out_features=1, bias=True)
  (fc1): Linear(in_features=64, out_features=32, bias=True)
  (fc2): Linear(in_features=32, out_features=2, bias=True)
  (leaky_relu): LeakyReLU(negative_slope=0.01)
  (softmax): Softmax(dim=1)
)","[('delta_volume', 'CNP'), ('avg_return_60d', 'CNP'), ('price_location_60d', 'CNP'), ('price_to_ma_60d', 'CNP'), ('avg_volume_20d', 'CNP'), ('avg_volume_5d', 'CNP'), ('delta_open', 'CNP'), ('avg_std_20d', 'CNP')]",0.65,0.45794392523364486,0.0
COF,-0.002437452220417281,0.010383870707624983,"EnhancedDirectionPredictionModel(
  (lstm): LSTM(8, 64, num_layers=3, batch_first=True, dropout=0.2)
  (dropout): Dropout(p=0.2, inplace=False)
  (attention): Linear(in_features=64, out_features=1, bias=True)
  (fc1): Linear(in_features=64, out_features=32, bias=True)
  (fc2): Linear(in_features=32, out_features=2, bias=True)
  (leaky_relu): LeakyReLU(negative_slope=0.01)
  (softmax): Softmax(dim=1)
)","[('delta_open', 'COF'), ('delta_overnight', 'COF'), ('price_to_ma_20d', 'COF'), ('avg_std_5d', 'COF'), ('avg_return_20d', 'COF'), ('avg_return_5d', 'COF'), ('price_location_20d', 'COF'), ('avg_std_20d', 'COF')]",0.65,0.4392523364485981,0.5
COO,0.00018394545755936266,0.006993265019671776,"EnhancedDirectionPredictionModel(
  (lstm): LSTM(8, 64, num_layers=3, batch_first=True, dropout=0.2)
  (dropout): Dropout(p=0.2, inplace=False)
  (attention): Linear(in_features=64, out_features=1, bias=True)
  (fc1): Linear(in_features=64, out_features=32, bias=True)
  (fc2): Linear(in_features=32, out_features=2, bias=True)
  (leaky_relu): LeakyReLU(negative_slope=0.01)
  (softmax): Softmax(dim=1)
)","[('avg_volume_5d', 'COO'), ('avg_std_5d', 'COO'), ('avg_volume_60d', 'COO'), ('delta_open', 'COO'), ('avg_range_20d', 'COO'), ('price_location_5d', 'COO'), ('avg_volume_20d', 'COO'), ('avg_std_20d', 'COO')]",0.65,0.5420560747663551,0.5833333333333334
COP,-0.0015071321518028132,0.007999740977333837,"EnhancedDirectionPredictionModel(
  (lstm): LSTM(8, 64, num_layers=3, batch_first=True, dropout=0.2)
  (dropout): Dropout(p=0.2, inplace=False)
  (attention): Linear(in_features=64, out_features=1, bias=True)
  (fc1): Linear(in_features=64, out_features=32, bias=True)
  (fc2): Linear(in_features=32, out_features=2, bias=True)
  (leaky_relu): LeakyReLU(negative_slope=0.01)
  (softmax): Softmax(dim=1)
)","[('avg_range_5d', 'COP'), ('avg_range_20d', 'COP'), ('avg_std_20d', 'COP'), ('delta_low', 'COP'), ('price_location_20d', 'COP'), ('delta_open', 'COP'), ('avg_std_5d', 'COP'), ('delta_high', 'COP')]",0.65,0.4392523364485981,0.49019607843137253
COR,0.0013465462657730228,0.0060808567371180905,"EnhancedDirectionPredictionModel(
  (lstm): LSTM(8, 64, num_layers=3, batch_first=True, dropout=0.2)
  (dropout): Dropout(p=0.2, inplace=False)
  (attention): Linear(in_features=64, out_features=1, bias=True)
  (fc1): Linear(in_features=64, out_features=32, bias=True)
  (fc2): Linear(in_features=32, out_features=2, bias=True)
  (leaky_relu): LeakyReLU(negative_slope=0.01)
  (softmax): Softmax(dim=1)
)","[('return', 'COR'), ('delta_low', 'COR'), ('price_location_5d', 'COR'), ('delta_intraday', 'COR'), ('delta_high', 'COR'), ('price_location_20d', 'COR'), ('delta_overnight', 'COR'), ('delta_range', 'COR')]",0.65,0.4953271028037383,0.6046511627906976
COST,0.0012586771027209447,0.006011669480823023,"EnhancedDirectionPredictionModel(
  (lstm): LSTM(8, 64, num_layers=3, batch_first=True, dropout=0.2)
  (dropout): Dropout(p=0.2, inplace=False)
  (attention): Linear(in_features=64, out_features=1, bias=True)
  (fc1): Linear(in_features=64, out_features=32, bias=True)
  (fc2): Linear(in_features=32, out_features=2, bias=True)
  (leaky_relu): LeakyReLU(negative_slope=0.01)
  (softmax): Softmax(dim=1)
)","[('price_location_20d', 'COST'), ('avg_volume_20d', 'COST'), ('delta_range', 'COST'), ('avg_volume_5d', 'COST'), ('avg_std_5d', 'COST'), ('price_to_ma_20d', 'COST'), ('delta_intraday', 'COST'), ('avg_return_20d', 'COST')]",0.65,0.5514018691588785,0.5777777777777777
CPAY,-0.00032982354072187963,0.008467592432208125,"EnhancedDirectionPredictionModel(
  (lstm): LSTM(8, 64, num_layers=3, batch_first=True, dropout=0.2)
  (dropout): Dropout(p=0.2, inplace=False)
  (attention): Linear(in_features=64, out_features=1, bias=True)
  (fc1): Linear(in_features=64, out_features=32, bias=True)
  (fc2): Linear(in_features=32, out_features=2, bias=True)
  (leaky_relu): LeakyReLU(negative_slope=0.01)
  (softmax): Softmax(dim=1)
)","[('return', 'CPAY'), ('price_to_ma_60d', 'CPAY'), ('delta_intraday', 'CPAY'), ('avg_return_60d', 'CPAY'), ('price_location_60d', 'CPAY'), ('delta_overnight', 'CPAY'), ('avg_return_20d', 'CPAY'), ('avg_range_20d', 'CPAY')]",0.65,0.4672897196261682,0.49122807017543857
CPB,-0.0005118716918245766,0.006173187257596901,"EnhancedDirectionPredictionModel(
  (lstm): LSTM(8, 64, num_layers=3, batch_first=True, dropout=0.2)
  (dropout): Dropout(p=0.2, inplace=False)
  (attention): Linear(in_features=64, out_features=1, bias=True)
  (fc1): Linear(in_features=64, out_features=32, bias=True)
  (fc2): Linear(in_features=32, out_features=2, bias=True)
  (leaky_relu): LeakyReLU(negative_slope=0.01)
  (softmax): Softmax(dim=1)
)","[('price_to_ma_20d', 'CPB'), ('avg_return_5d', 'CPB'), ('price_location_5d', 'CPB'), ('price_to_ma_5d', 'CPB'), ('price_to_ma_60d', 'CPB'), ('delta_overnight', 'CPB'), ('price_location_60d', 'CPB'), ('avg_return_60d', 'CPB')]",0.65,0.5607476635514018,0.5245901639344263
CPRT,-0.0009488120240090469,0.005197001404672368,"EnhancedDirectionPredictionModel(
  (lstm): LSTM(8, 64, num_layers=3, batch_first=True, dropout=0.2)
  (dropout): Dropout(p=0.2, inplace=False)
  (attention): Linear(in_features=64, out_features=1, bias=True)
  (fc1): Linear(in_features=64, out_features=32, bias=True)
  (fc2): Linear(in_features=32, out_features=2, bias=True)
  (leaky_relu): LeakyReLU(negative_slope=0.01)
  (softmax): Softmax(dim=1)
)","[('avg_std_60d', 'CPRT'), ('avg_std_20d', 'CPRT'), ('delta_intraday', 'CPRT'), ('return', 'CPRT'), ('avg_range_60d', 'CPRT'), ('price_location_5d', 'CPRT'), ('price_location_20d', 'CPRT'), ('price_to_ma_5d', 'CPRT')]",0.65,0.45794392523364486,0.4473684210526316
CPT,0.0,0.006060667286845221,"EnhancedDirectionPredictionModel(
  (lstm): LSTM(8, 64, num_layers=3, batch_first=True, dropout=0.2)
  (dropout): Dropout(p=0.2, inplace=False)
  (attention): Linear(in_features=64, out_features=1, bias=True)
  (fc1): Linear(in_features=64, out_features=32, bias=True)
  (fc2): Linear(in_features=32, out_features=2, bias=True)
  (leaky_relu): LeakyReLU(negative_slope=0.01)
  (softmax): Softmax(dim=1)
)","[('delta_overnight', 'CPT'), ('avg_std_5d', 'CPT'), ('avg_volume_20d', 'CPT'), ('avg_range_60d', 'CPT'), ('avg_range_5d', 'CPT'), ('avg_return_60d', 'CPT'), ('delta_open', 'CPT'), ('price_location_60d', 'CPT')]",0.65,0.5046728971962616,0.0
CRL,-0.00019170925998498984,0.011288230362043836,"EnhancedDirectionPredictionModel(
  (lstm): LSTM(8, 64, num_layers=3, batch_first=True, dropout=0.2)
  (dropout): Dropout(p=0.2, inplace=False)
  (attention): Linear(in_features=64, out_features=1, bias=True)
  (fc1): Linear(in_features=64, out_features=32, bias=True)
  (fc2): Linear(in_features=32, out_features=2, bias=True)
  (leaky_relu): LeakyReLU(negative_slope=0.01)
  (softmax): Softmax(dim=1)
)","[('avg_volume_5d', 'CRL'), ('price_location_5d', 'CRL'), ('price_location_60d', 'CRL'), ('avg_volume_60d', 'CRL'), ('avg_std_5d', 'CRL'), ('price_location_20d', 'CRL'), ('delta_volume', 'CRL'), ('price_to_ma_5d', 'CRL')]",0.65,0.514018691588785,0.46153846153846156
CRM,-0.001713267322822614,0.006926453208170969,"EnhancedDirectionPredictionModel(
  (lstm): LSTM(8, 64, num_layers=3, batch_first=True, dropout=0.2)
  (dropout): Dropout(p=0.2, inplace=False)
  (attention): Linear(in_features=64, out_features=1, bias=True)
  (fc1): Linear(in_features=64, out_features=32, bias=True)
  (fc2): Linear(in_features=32, out_features=2, bias=True)
  (leaky_relu): LeakyReLU(negative_slope=0.01)
  (softmax): Softmax(dim=1)
)","[('delta_volume', 'CRM'), ('avg_return_5d', 'CRM'), ('avg_range_5d', 'CRM'), ('avg_range_60d', 'CRM'), ('avg_range_20d', 'CRM'), ('avg_std_5d', 'CRM'), ('delta_intraday', 'CRM'), ('avg_std_20d', 'CRM')]",0.65,0.4672897196261682,0.4528301886792453
CRWD,0.0,0.0141273832792966,"EnhancedDirectionPredictionModel(
  (lstm): LSTM(8, 64, num_layers=3, batch_first=True, dropout=0.2)
  (dropout): Dropout(p=0.2, inplace=False)
  (attention): Linear(in_features=64, out_features=1, bias=True)
  (fc1): Linear(in_features=64, out_features=32, bias=True)
  (fc2): Linear(in_features=32, out_features=2, bias=True)
  (leaky_relu): LeakyReLU(negative_slope=0.01)
  (softmax): Softmax(dim=1)
)","[('delta_intraday', 'CRWD'), ('delta_range', 'CRWD'), ('avg_volume_20d', 'CRWD'), ('avg_volume_5d', 'CRWD'), ('return', 'CRWD'), ('delta_low', 'CRWD'), ('delta_open', 'CRWD'), ('avg_std_20d', 'CRWD')]",0.65,0.4953271028037383,0.0
CSCO,0.0,0.005919001690956981,"EnhancedDirectionPredictionModel(
  (lstm): LSTM(8, 64, num_layers=3, batch_first=True, dropout=0.2)
  (dropout): Dropout(p=0.2, inplace=False)
  (attention): Linear(in_features=64, out_features=1, bias=True)
  (fc1): Linear(in_features=64, out_features=32, bias=True)
  (fc2): Linear(in_features=32, out_features=2, bias=True)
  (leaky_relu): LeakyReLU(negative_slope=0.01)
  (softmax): Softmax(dim=1)
)","[('delta_overnight', 'CSCO'), ('delta_open', 'CSCO'), ('avg_volume_5d', 'CSCO'), ('delta_volume', 'CSCO'), ('delta_low', 'CSCO'), ('price_to_ma_60d', 'CSCO'), ('return', 'CSCO'), ('delta_high', 'CSCO')]",0.65,0.4205607476635514,0.0
CSGP,-0.0004245444730429731,0.008322357578042503,"EnhancedDirectionPredictionModel(
  (lstm): LSTM(8, 64, num_layers=3, batch_first=True, dropout=0.2)
  (dropout): Dropout(p=0.2, inplace=False)
  (attention): Linear(in_features=64, out_features=1, bias=True)
  (fc1): Linear(in_features=64, out_features=32, bias=True)
  (fc2): Linear(in_features=32, out_features=2, bias=True)
  (leaky_relu): LeakyReLU(negative_slope=0.01)
  (softmax): Softmax(dim=1)
)","[('avg_return_20d', 'CSGP'), ('avg_volume_60d', 'CSGP'), ('avg_std_60d', 'CSGP'), ('delta_overnight', 'CSGP'), ('avg_volume_5d', 'CSGP'), ('price_location_20d', 'CSGP'), ('delta_open', 'CSGP'), ('price_location_5d', 'CSGP')]",0.65,0.45794392523364486,0.4642857142857143
CSX,-0.0005660777136084913,0.00561839048129787,"EnhancedDirectionPredictionModel(
  (lstm): LSTM(8, 64, num_layers=3, batch_first=True, dropout=0.2)
  (dropout): Dropout(p=0.2, inplace=False)
  (attention): Linear(in_features=64, out_features=1, bias=True)
  (fc1): Linear(in_features=64, out_features=32, bias=True)
  (fc2): Linear(in_features=32, out_features=2, bias=True)
  (leaky_relu): LeakyReLU(negative_slope=0.01)
  (softmax): Softmax(dim=1)
)","[('avg_volume_5d', 'CSX'), ('delta_volume', 'CSX'), ('avg_return_5d', 'CSX'), ('avg_return_60d', 'CSX'), ('delta_range', 'CSX'), ('price_to_ma_60d', 'CSX'), ('delta_intraday', 'CSX'), ('price_location_5d', 'CSX')]",0.65,0.5046728971962616,0.5531914893617021
CTAS,-0.0004198765487414134,0.0067762087609245444,"EnhancedDirectionPredictionModel(
  (lstm): LSTM(8, 64, num_layers=3, batch_first=True, dropout=0.2)
  (dropout): Dropout(p=0.2, inplace=False)
  (attention): Linear(in_features=64, out_features=1, bias=True)
  (fc1): Linear(in_features=64, out_features=32, bias=True)
  (fc2): Linear(in_features=32, out_features=2, bias=True)
  (leaky_relu): LeakyReLU(negative_slope=0.01)
  (softmax): Softmax(dim=1)
)","[('delta_intraday', 'CTAS'), ('delta_volume', 'CTAS'), ('avg_std_60d', 'CTAS'), ('avg_range_60d', 'CTAS'), ('price_location_20d', 'CTAS'), ('price_to_ma_20d', 'CTAS'), ('price_location_5d', 'CTAS'), ('return', 'CTAS')]",0.65,0.48598130841121495,0.48717948717948717
CTRA,0.0017472375749184275,0.008388848439412304,"EnhancedDirectionPredictionModel(
  (lstm): LSTM(8, 64, num_layers=3, batch_first=True, dropout=0.2)
  (dropout): Dropout(p=0.2, inplace=False)
  (attention): Linear(in_features=64, out_features=1, bias=True)
  (fc1): Linear(in_features=64, out_features=32, bias=True)
  (fc2): Linear(in_features=32, out_features=2, bias=True)
  (leaky_relu): LeakyReLU(negative_slope=0.01)
  (softmax): Softmax(dim=1)
)","[('avg_return_20d', 'CTRA'), ('price_location_20d', 'CTRA'), ('price_location_60d', 'CTRA'), ('price_to_ma_20d', 'CTRA'), ('price_to_ma_60d', 'CTRA'), ('avg_std_5d', 'CTRA'), ('avg_return_60d', 'CTRA'), ('avg_range_5d', 'CTRA')]",0.65,0.5607476635514018,0.71875
CTSH,0.0,0.006209187979403765,"EnhancedDirectionPredictionModel(
  (lstm): LSTM(8, 64, num_layers=3, batch_first=True, dropout=0.2)
  (dropout): Dropout(p=0.2, inplace=False)
  (attention): Linear(in_features=64, out_features=1, bias=True)
  (fc1): Linear(in_features=64, out_features=32, bias=True)
  (fc2): Linear(in_features=32, out_features=2, bias=True)
  (leaky_relu): LeakyReLU(negative_slope=0.01)
  (softmax): Softmax(dim=1)
)","[('avg_range_20d', 'CTSH'), ('avg_range_5d', 'CTSH'), ('avg_volume_5d', 'CTSH'), ('avg_std_20d', 'CTSH'), ('delta_volume', 'CTSH'), ('delta_range', 'CTSH'), ('avg_std_5d', 'CTSH'), ('avg_return_20d', 'CTSH')]",0.65,0.45794392523364486,0.0
CTVA,0.0016208657032671112,0.006899044471505214,"EnhancedDirectionPredictionModel(
  (lstm): LSTM(8, 64, num_layers=3, batch_first=True, dropout=0.2)
  (dropout): Dropout(p=0.2, inplace=False)
  (attention): Linear(in_features=64, out_features=1, bias=True)
  (fc1): Linear(in_features=64, out_features=32, bias=True)
  (fc2): Linear(in_features=32, out_features=2, bias=True)
  (leaky_relu): LeakyReLU(negative_slope=0.01)
  (softmax): Softmax(dim=1)
)","[('avg_range_5d', 'CTVA'), ('avg_range_20d', 'CTVA'), ('avg_range_60d', 'CTVA'), ('avg_std_5d', 'CTVA'), ('avg_return_20d', 'CTVA'), ('price_to_ma_60d', 'CTVA'), ('avg_std_60d', 'CTVA'), ('avg_std_20d', 'CTVA')]",0.65,0.5420560747663551,0.65
CVS,0.0021644383671564765,0.009984535723161853,"EnhancedDirectionPredictionModel(
  (lstm): LSTM(8, 64, num_layers=3, batch_first=True, dropout=0.2)
  (dropout): Dropout(p=0.2, inplace=False)
  (attention): Linear(in_features=64, out_features=1, bias=True)
  (fc1): Linear(in_features=64, out_features=32, bias=True)
  (fc2): Linear(in_features=32, out_features=2, bias=True)
  (leaky_relu): LeakyReLU(negative_slope=0.01)
  (softmax): Softmax(dim=1)
)","[('delta_open', 'CVS'), ('delta_overnight', 'CVS'), ('delta_low', 'CVS'), ('return', 'CVS'), ('price_to_ma_5d', 'CVS'), ('delta_high', 'CVS'), ('price_location_5d', 'CVS'), ('avg_range_20d', 'CVS')]",0.65,0.5514018691588785,0.5714285714285714
CVX,0.001096605415189492,0.0062093981842772285,"EnhancedDirectionPredictionModel(
  (lstm): LSTM(8, 64, num_layers=3, batch_first=True, dropout=0.2)
  (dropout): Dropout(p=0.2, inplace=False)
  (attention): Linear(in_features=64, out_features=1, bias=True)
  (fc1): Linear(in_features=64, out_features=32, bias=True)
  (fc2): Linear(in_features=32, out_features=2, bias=True)
  (leaky_relu): LeakyReLU(negative_slope=0.01)
  (softmax): Softmax(dim=1)
)","[('avg_range_5d', 'CVX'), ('delta_volume', 'CVX'), ('avg_range_20d', 'CVX'), ('price_location_5d', 'CVX'), ('price_to_ma_60d', 'CVX'), ('delta_open', 'CVX'), ('avg_volume_60d', 'CVX'), ('price_location_20d', 'CVX')]",0.65,0.45794392523364486,0.5517241379310345
CZR,-0.0027346453912761794,0.01052371010902713,"EnhancedDirectionPredictionModel(
  (lstm): LSTM(8, 64, num_layers=3, batch_first=True, dropout=0.2)
  (dropout): Dropout(p=0.2, inplace=False)
  (attention): Linear(in_features=64, out_features=1, bias=True)
  (fc1): Linear(in_features=64, out_features=32, bias=True)
  (fc2): Linear(in_features=32, out_features=2, bias=True)
  (leaky_relu): LeakyReLU(negative_slope=0.01)
  (softmax): Softmax(dim=1)
)","[('avg_return_5d', 'CZR'), ('price_location_5d', 'CZR'), ('avg_range_20d', 'CZR'), ('delta_intraday', 'CZR'), ('avg_std_60d', 'CZR'), ('delta_open', 'CZR'), ('avg_range_60d', 'CZR'), ('delta_low', 'CZR')]",0.65,0.45794392523364486,0.34
D,0.00013731907663373956,0.006423291099751937,"EnhancedDirectionPredictionModel(
  (lstm): LSTM(8, 64, num_layers=3, batch_first=True, dropout=0.2)
  (dropout): Dropout(p=0.2, inplace=False)
  (attention): Linear(in_features=64, out_features=1, bias=True)
  (fc1): Linear(in_features=64, out_features=32, bias=True)
  (fc2): Linear(in_features=32, out_features=2, bias=True)
  (leaky_relu): LeakyReLU(negative_slope=0.01)
  (softmax): Softmax(dim=1)
)","[('avg_range_20d', 'D'), ('price_to_ma_60d', 'D'), ('price_location_60d', 'D'), ('avg_std_20d', 'D'), ('avg_return_60d', 'D'), ('delta_intraday', 'D'), ('price_to_ma_20d', 'D'), ('avg_return_5d', 'D')]",0.65,0.40186915887850466,1.0
DAL,-0.0006847048002232907,0.01208735603018439,"EnhancedDirectionPredictionModel(
  (lstm): LSTM(8, 64, num_layers=3, batch_first=True, dropout=0.2)
  (dropout): Dropout(p=0.2, inplace=False)
  (attention): Linear(in_features=64, out_features=1, bias=True)
  (fc1): Linear(in_features=64, out_features=32, bias=True)
  (fc2): Linear(in_features=32, out_features=2, bias=True)
  (leaky_relu): LeakyReLU(negative_slope=0.01)
  (softmax): Softmax(dim=1)
)","[('avg_std_5d', 'DAL'), ('avg_volume_20d', 'DAL'), ('delta_intraday', 'DAL'), ('delta_open', 'DAL'), ('price_location_20d', 'DAL'), ('avg_volume_5d', 'DAL'), ('avg_volume_60d', 'DAL'), ('delta_overnight', 'DAL')]",0.65,0.514018691588785,0.43243243243243246
DAY,-0.0014371356271674312,0.007973493845269693,"EnhancedDirectionPredictionModel(
  (lstm): LSTM(8, 64, num_layers=3, batch_first=True, dropout=0.2)
  (dropout): Dropout(p=0.2, inplace=False)
  (attention): Linear(in_features=64, out_features=1, bias=True)
  (fc1): Linear(in_features=64, out_features=32, bias=True)
  (fc2): Linear(in_features=32, out_features=2, bias=True)
  (leaky_relu): LeakyReLU(negative_slope=0.01)
  (softmax): Softmax(dim=1)
)","[('delta_intraday', 'DAY'), ('avg_std_5d', 'DAY'), ('return', 'DAY'), ('price_to_ma_5d', 'DAY'), ('avg_std_20d', 'DAY'), ('avg_return_60d', 'DAY'), ('delta_low', 'DAY'), ('delta_overnight', 'DAY')]",0.65,0.4205607476635514,0.3829787234042553
DD,0.001377492310972436,0.007585800218068204,"EnhancedDirectionPredictionModel(
  (lstm): LSTM(8, 64, num_layers=3, batch_first=True, dropout=0.2)
  (dropout): Dropout(p=0.2, inplace=False)
  (attention): Linear(in_features=64, out_features=1, bias=True)
  (fc1): Linear(in_features=64, out_features=32, bias=True)
  (fc2): Linear(in_features=32, out_features=2, bias=True)
  (leaky_relu): LeakyReLU(negative_slope=0.01)
  (softmax): Softmax(dim=1)
)","[('avg_std_5d', 'DD'), ('avg_volume_60d', 'DD'), ('avg_std_60d', 'DD'), ('avg_volume_20d', 'DD'), ('delta_intraday', 'DD'), ('delta_open', 'DD'), ('avg_return_60d', 'DD'), ('price_to_ma_20d', 'DD')]",0.65,0.5607476635514018,0.5714285714285714
DE,-0.00032250164575343406,0.008587787787412449,"EnhancedDirectionPredictionModel(
  (lstm): LSTM(8, 64, num_layers=3, batch_first=True, dropout=0.2)
  (dropout): Dropout(p=0.2, inplace=False)
  (attention): Linear(in_features=64, out_features=1, bias=True)
  (fc1): Linear(in_features=64, out_features=32, bias=True)
  (fc2): Linear(in_features=32, out_features=2, bias=True)
  (leaky_relu): LeakyReLU(negative_slope=0.01)
  (softmax): Softmax(dim=1)
)","[('delta_high', 'DE'), ('avg_std_60d', 'DE'), ('avg_range_5d', 'DE'), ('avg_std_20d', 'DE'), ('avg_range_60d', 'DE'), ('delta_intraday', 'DE'), ('return', 'DE'), ('avg_return_5d', 'DE')]",0.65,0.4485981308411215,0.4489795918367347
DECK,-0.00014493056027473577,0.010042592957807947,"EnhancedDirectionPredictionModel(
  (lstm): LSTM(8, 64, num_layers=3, batch_first=True, dropout=0.2)
  (dropout): Dropout(p=0.2, inplace=False)
  (attention): Linear(in_features=64, out_features=1, bias=True)
  (fc1): Linear(in_features=64, out_features=32, bias=True)
  (fc2): Linear(in_features=32, out_features=2, bias=True)
  (leaky_relu): LeakyReLU(negative_slope=0.01)
  (softmax): Softmax(dim=1)
)","[('price_location_60d', 'DECK'), ('avg_volume_5d', 'DECK'), ('avg_range_5d', 'DECK'), ('avg_std_60d', 'DECK'), ('avg_range_60d', 'DECK'), ('price_to_ma_5d', 'DECK'), ('avg_std_5d', 'DECK'), ('avg_return_5d', 'DECK')]",0.65,0.5046728971962616,0.4594594594594595
DELL,0.002559424741462817,0.013577757719838645,"EnhancedDirectionPredictionModel(
  (lstm): LSTM(8, 64, num_layers=3, batch_first=True, dropout=0.2)
  (dropout): Dropout(p=0.2, inplace=False)
  (attention): Linear(in_features=64, out_features=1, bias=True)
  (fc1): Linear(in_features=64, out_features=32, bias=True)
  (fc2): Linear(in_features=32, out_features=2, bias=True)
  (leaky_relu): LeakyReLU(negative_slope=0.01)
  (softmax): Softmax(dim=1)
)","[('price_to_ma_60d', 'DELL'), ('price_to_ma_20d', 'DELL'), ('avg_return_20d', 'DELL'), ('price_location_20d', 'DELL'), ('avg_return_60d', 'DELL'), ('delta_low', 'DELL'), ('avg_std_5d', 'DELL'), ('avg_volume_5d', 'DELL')]",0.65,0.5327102803738317,0.5510204081632653
DG,0.0014682760468841371,0.01036996553180534,"EnhancedDirectionPredictionModel(
  (lstm): LSTM(8, 64, num_layers=3, batch_first=True, dropout=0.2)
  (dropout): Dropout(p=0.2, inplace=False)
  (attention): Linear(in_features=64, out_features=1, bias=True)
  (fc1): Linear(in_features=64, out_features=32, bias=True)
  (fc2): Linear(in_features=32, out_features=2, bias=True)
  (leaky_relu): LeakyReLU(negative_slope=0.01)
  (softmax): Softmax(dim=1)
)","[('avg_volume_60d', 'DG'), ('delta_overnight', 'DG'), ('delta_volume', 'DG'), ('delta_open', 'DG'), ('return', 'DG'), ('avg_return_5d', 'DG'), ('avg_return_20d', 'DG'), ('price_location_60d', 'DG')]",0.65,0.5233644859813084,0.6
DGX,0.002164253058307864,0.006201292763291635,"EnhancedDirectionPredictionModel(
  (lstm): LSTM(8, 64, num_layers=3, batch_first=True, dropout=0.2)
  (dropout): Dropout(p=0.2, inplace=False)
  (attention): Linear(in_features=64, out_features=1, bias=True)
  (fc1): Linear(in_features=64, out_features=32, bias=True)
  (fc2): Linear(in_features=32, out_features=2, bias=True)
  (leaky_relu): LeakyReLU(negative_slope=0.01)
  (softmax): Softmax(dim=1)
)","[('price_location_60d', 'DGX'), ('delta_range', 'DGX'), ('price_to_ma_60d', 'DGX'), ('avg_return_5d', 'DGX'), ('delta_volume', 'DGX'), ('delta_high', 'DGX'), ('avg_volume_5d', 'DGX'), ('avg_std_5d', 'DGX')]",0.65,0.5794392523364486,0.6764705882352942
DHI,9.029463628020361e-05,0.007530172350759583,"EnhancedDirectionPredictionModel(
  (lstm): LSTM(8, 64, num_layers=3, batch_first=True, dropout=0.2)
  (dropout): Dropout(p=0.2, inplace=False)
  (attention): Linear(in_features=64, out_features=1, bias=True)
  (fc1): Linear(in_features=64, out_features=32, bias=True)
  (fc2): Linear(in_features=32, out_features=2, bias=True)
  (leaky_relu): LeakyReLU(negative_slope=0.01)
  (softmax): Softmax(dim=1)
)","[('delta_high', 'DHI'), ('delta_open', 'DHI'), ('price_location_5d', 'DHI'), ('price_to_ma_5d', 'DHI'), ('delta_low', 'DHI'), ('return', 'DHI'), ('avg_return_5d', 'DHI'), ('delta_intraday', 'DHI')]",0.65,0.5514018691588785,0.56
DHR,0.0,0.00698856000616627,"EnhancedDirectionPredictionModel(
  (lstm): LSTM(8, 64, num_layers=3, batch_first=True, dropout=0.2)
  (dropout): Dropout(p=0.2, inplace=False)
  (attention): Linear(in_features=64, out_features=1, bias=True)
  (fc1): Linear(in_features=64, out_features=32, bias=True)
  (fc2): Linear(in_features=32, out_features=2, bias=True)
  (leaky_relu): LeakyReLU(negative_slope=0.01)
  (softmax): Softmax(dim=1)
)","[('avg_volume_60d', 'DHR'), ('delta_high', 'DHR'), ('delta_open', 'DHR'), ('avg_volume_5d', 'DHR'), ('delta_low', 'DHR'), ('delta_volume', 'DHR'), ('return', 'DHR'), ('avg_std_20d', 'DHR')]",0.65,0.48598130841121495,0.0
DIS,0.0,0.007300350098090033,"EnhancedDirectionPredictionModel(
  (lstm): LSTM(8, 64, num_layers=3, batch_first=True, dropout=0.2)
  (dropout): Dropout(p=0.2, inplace=False)
  (attention): Linear(in_features=64, out_features=1, bias=True)
  (fc1): Linear(in_features=64, out_features=32, bias=True)
  (fc2): Linear(in_features=32, out_features=2, bias=True)
  (leaky_relu): LeakyReLU(negative_slope=0.01)
  (softmax): Softmax(dim=1)
)","[('delta_volume', 'DIS'), ('delta_range', 'DIS'), ('delta_intraday', 'DIS'), ('avg_range_5d', 'DIS'), ('delta_high', 'DIS'), ('avg_volume_5d', 'DIS'), ('avg_return_5d', 'DIS'), ('avg_return_60d', 'DIS')]",0.65,0.48598130841121495,0.0
DLR,-0.000672233654892353,0.007198924659291015,"EnhancedDirectionPredictionModel(
  (lstm): LSTM(8, 64, num_layers=3, batch_first=True, dropout=0.2)
  (dropout): Dropout(p=0.2, inplace=False)
  (attention): Linear(in_features=64, out_features=1, bias=True)
  (fc1): Linear(in_features=64, out_features=32, bias=True)
  (fc2): Linear(in_features=32, out_features=2, bias=True)
  (leaky_relu): LeakyReLU(negative_slope=0.01)
  (softmax): Softmax(dim=1)
)","[('delta_overnight', 'DLR'), ('avg_volume_5d', 'DLR'), ('delta_open', 'DLR'), ('price_to_ma_60d', 'DLR'), ('price_location_60d', 'DLR'), ('avg_return_20d', 'DLR'), ('return', 'DLR'), ('avg_range_20d', 'DLR')]",0.65,0.5420560747663551,0.5714285714285714
DLTR,0.0008041781970557519,0.012692154751265956,"EnhancedDirectionPredictionModel(
  (lstm): LSTM(8, 64, num_layers=3, batch_first=True, dropout=0.2)
  (dropout): Dropout(p=0.2, inplace=False)
  (attention): Linear(in_features=64, out_features=1, bias=True)
  (fc1): Linear(in_features=64, out_features=32, bias=True)
  (fc2): Linear(in_features=32, out_features=2, bias=True)
  (leaky_relu): LeakyReLU(negative_slope=0.01)
  (softmax): Softmax(dim=1)
)","[('avg_volume_60d', 'DLTR'), ('delta_low', 'DLTR'), ('avg_std_60d', 'DLTR'), ('avg_range_5d', 'DLTR'), ('delta_intraday', 'DLTR'), ('avg_return_5d', 'DLTR'), ('avg_range_20d', 'DLTR'), ('delta_high', 'DLTR')]",0.65,0.4953271028037383,0.5384615384615384
DOC,-0.0005990228103651934,0.0053456564415857175,"EnhancedDirectionPredictionModel(
  (lstm): LSTM(8, 64, num_layers=3, batch_first=True, dropout=0.2)
  (dropout): Dropout(p=0.2, inplace=False)
  (attention): Linear(in_features=64, out_features=1, bias=True)
  (fc1): Linear(in_features=64, out_features=32, bias=True)
  (fc2): Linear(in_features=32, out_features=2, bias=True)
  (leaky_relu): LeakyReLU(negative_slope=0.01)
  (softmax): Softmax(dim=1)
)","[('delta_overnight', 'DOC'), ('avg_return_5d', 'DOC'), ('avg_range_20d', 'DOC'), ('avg_std_20d', 'DOC'), ('delta_intraday', 'DOC'), ('price_to_ma_20d', 'DOC'), ('price_to_ma_60d', 'DOC'), ('delta_range', 'DOC')]",0.65,0.5420560747663551,0.5128205128205128
DOV,0.0011898110554086642,0.006672482036776606,"EnhancedDirectionPredictionModel(
  (lstm): LSTM(8, 64, num_layers=3, batch_first=True, dropout=0.2)
  (dropout): Dropout(p=0.2, inplace=False)
  (attention): Linear(in_features=64, out_features=1, bias=True)
  (fc1): Linear(in_features=64, out_features=32, bias=True)
  (fc2): Linear(in_features=32, out_features=2, bias=True)
  (leaky_relu): LeakyReLU(negative_slope=0.01)
  (softmax): Softmax(dim=1)
)","[('delta_overnight', 'DOV'), ('delta_volume', 'DOV'), ('price_location_5d', 'DOV'), ('delta_low', 'DOV'), ('delta_open', 'DOV'), ('avg_return_5d', 'DOV'), ('delta_intraday', 'DOV'), ('avg_volume_60d', 'DOV')]",0.65,0.5607476635514018,0.5384615384615384
DOW,0.001792636765517127,0.008251610288010735,"EnhancedDirectionPredictionModel(
  (lstm): LSTM(8, 64, num_layers=3, batch_first=True, dropout=0.2)
  (dropout): Dropout(p=0.2, inplace=False)
  (attention): Linear(in_features=64, out_features=1, bias=True)
  (fc1): Linear(in_features=64, out_features=32, bias=True)
  (fc2): Linear(in_features=32, out_features=2, bias=True)
  (leaky_relu): LeakyReLU(negative_slope=0.01)
  (softmax): Softmax(dim=1)
)","[('avg_volume_20d', 'DOW'), ('avg_return_5d', 'DOW'), ('price_location_20d', 'DOW'), ('avg_volume_5d', 'DOW'), ('price_to_ma_20d', 'DOW'), ('price_location_5d', 'DOW'), ('delta_low', 'DOW'), ('avg_return_60d', 'DOW')]",0.65,0.5700934579439252,0.5294117647058824
DPZ,0.0,0.00793182042600452,"EnhancedDirectionPredictionModel(
  (lstm): LSTM(8, 64, num_layers=3, batch_first=True, dropout=0.2)
  (dropout): Dropout(p=0.2, inplace=False)
  (attention): Linear(in_features=64, out_features=1, bias=True)
  (fc1): Linear(in_features=64, out_features=32, bias=True)
  (fc2): Linear(in_features=32, out_features=2, bias=True)
  (leaky_relu): LeakyReLU(negative_slope=0.01)
  (softmax): Softmax(dim=1)
)","[('delta_intraday', 'DPZ'), ('avg_return_60d', 'DPZ'), ('return', 'DPZ'), ('avg_std_20d', 'DPZ'), ('delta_volume', 'DPZ'), ('avg_range_20d', 'DPZ'), ('price_to_ma_60d', 'DPZ'), ('delta_high', 'DPZ')]",0.65,0.48598130841121495,0.0
DRI,0.0029718882468694465,0.008285678770274967,"EnhancedDirectionPredictionModel(
  (lstm): LSTM(8, 64, num_layers=3, batch_first=True, dropout=0.2)
  (dropout): Dropout(p=0.2, inplace=False)
  (attention): Linear(in_features=64, out_features=1, bias=True)
  (fc1): Linear(in_features=64, out_features=32, bias=True)
  (fc2): Linear(in_features=32, out_features=2, bias=True)
  (leaky_relu): LeakyReLU(negative_slope=0.01)
  (softmax): Softmax(dim=1)
)","[('price_to_ma_20d', 'DRI'), ('price_to_ma_60d', 'DRI'), ('price_location_20d', 'DRI'), ('avg_return_5d', 'DRI'), ('avg_return_20d', 'DRI'), ('avg_volume_5d', 'DRI'), ('avg_range_5d', 'DRI'), ('avg_return_60d', 'DRI')]",0.65,0.5420560747663551,0.5645161290322581
DTE,0.0,0.00545633066092957,"EnhancedDirectionPredictionModel(
  (lstm): LSTM(8, 64, num_layers=3, batch_first=True, dropout=0.2)
  (dropout): Dropout(p=0.2, inplace=False)
  (attention): Linear(in_features=64, out_features=1, bias=True)
  (fc1): Linear(in_features=64, out_features=32, bias=True)
  (fc2): Linear(in_features=32, out_features=2, bias=True)
  (leaky_relu): LeakyReLU(negative_slope=0.01)
  (softmax): Softmax(dim=1)
)","[('delta_intraday', 'DTE'), ('avg_range_20d', 'DTE'), ('avg_return_60d', 'DTE'), ('price_to_ma_60d', 'DTE'), ('return', 'DTE'), ('delta_high', 'DTE'), ('delta_overnight', 'DTE'), ('price_location_60d', 'DTE')]",0.65,0.37383177570093457,0.0
DUK,0.00040596117748631003,0.00559669263474083,"EnhancedDirectionPredictionModel(
  (lstm): LSTM(8, 64, num_layers=3, batch_first=True, dropout=0.2)
  (dropout): Dropout(p=0.2, inplace=False)
  (attention): Linear(in_features=64, out_features=1, bias=True)
  (fc1): Linear(in_features=64, out_features=32, bias=True)
  (fc2): Linear(in_features=32, out_features=2, bias=True)
  (leaky_relu): LeakyReLU(negative_slope=0.01)
  (softmax): Softmax(dim=1)
)","[('avg_range_20d', 'DUK'), ('avg_return_60d', 'DUK'), ('price_to_ma_60d', 'DUK'), ('price_location_60d', 'DUK'), ('avg_range_60d', 'DUK'), ('avg_std_20d', 'DUK'), ('avg_range_5d', 'DUK'), ('avg_std_5d', 'DUK')]",0.65,0.5233644859813084,0.7
DVA,0.0016360676576370825,0.00717837330032206,"EnhancedDirectionPredictionModel(
  (lstm): LSTM(8, 64, num_layers=3, batch_first=True, dropout=0.2)
  (dropout): Dropout(p=0.2, inplace=False)
  (attention): Linear(in_features=64, out_features=1, bias=True)
  (fc1): Linear(in_features=64, out_features=32, bias=True)
  (fc2): Linear(in_features=32, out_features=2, bias=True)
  (leaky_relu): LeakyReLU(negative_slope=0.01)
  (softmax): Softmax(dim=1)
)","[('avg_range_60d', 'DVA'), ('avg_std_60d', 'DVA'), ('avg_return_60d', 'DVA'), ('avg_volume_60d', 'DVA'), ('avg_volume_5d', 'DVA'), ('price_location_60d', 'DVA'), ('avg_range_5d', 'DVA'), ('price_to_ma_60d', 'DVA')]",0.65,0.5420560747663551,0.6774193548387096
DVN,-0.0005651699974054187,0.010843379718707715,"EnhancedDirectionPredictionModel(
  (lstm): LSTM(8, 64, num_layers=3, batch_first=True, dropout=0.2)
  (dropout): Dropout(p=0.2, inplace=False)
  (attention): Linear(in_features=64, out_features=1, bias=True)
  (fc1): Linear(in_features=64, out_features=32, bias=True)
  (fc2): Linear(in_features=32, out_features=2, bias=True)
  (leaky_relu): LeakyReLU(negative_slope=0.01)
  (softmax): Softmax(dim=1)
)","[('avg_range_5d', 'DVN'), ('avg_range_20d', 'DVN'), ('avg_std_5d', 'DVN'), ('avg_range_60d', 'DVN'), ('avg_std_20d', 'DVN'), ('avg_return_20d', 'DVN'), ('delta_open', 'DVN'), ('avg_std_60d', 'DVN')]",0.65,0.5700934579439252,0.5882352941176471
DXCM,0.002096346878282006,0.01089431815404836,"EnhancedDirectionPredictionModel(
  (lstm): LSTM(8, 64, num_layers=3, batch_first=True, dropout=0.2)
  (dropout): Dropout(p=0.2, inplace=False)
  (attention): Linear(in_features=64, out_features=1, bias=True)
  (fc1): Linear(in_features=64, out_features=32, bias=True)
  (fc2): Linear(in_features=32, out_features=2, bias=True)
  (leaky_relu): LeakyReLU(negative_slope=0.01)
  (softmax): Softmax(dim=1)
)","[('delta_volume', 'DXCM'), ('avg_return_60d', 'DXCM'), ('delta_high', 'DXCM'), ('delta_overnight', 'DXCM'), ('return', 'DXCM'), ('avg_std_5d', 'DXCM'), ('avg_volume_5d', 'DXCM'), ('avg_std_60d', 'DXCM')]",0.65,0.5233644859813084,0.5714285714285714
EA,0.001668485346518024,0.0066804759550278415,"EnhancedDirectionPredictionModel(
  (lstm): LSTM(8, 64, num_layers=3, batch_first=True, dropout=0.2)
  (dropout): Dropout(p=0.2, inplace=False)
  (attention): Linear(in_features=64, out_features=1, bias=True)
  (fc1): Linear(in_features=64, out_features=32, bias=True)
  (fc2): Linear(in_features=32, out_features=2, bias=True)
  (leaky_relu): LeakyReLU(negative_slope=0.01)
  (softmax): Softmax(dim=1)
)","[('return', 'EA'), ('delta_high', 'EA'), ('delta_overnight', 'EA'), ('delta_open', 'EA'), ('price_to_ma_5d', 'EA'), ('delta_low', 'EA'), ('avg_return_60d', 'EA'), ('avg_std_60d', 'EA')]",0.65,0.5981308411214953,0.5806451612903226
EBAY,0.0005089671454334792,0.00808825609627041,"EnhancedDirectionPredictionModel(
  (lstm): LSTM(8, 64, num_layers=3, batch_first=True, dropout=0.2)
  (dropout): Dropout(p=0.2, inplace=False)
  (attention): Linear(in_features=64, out_features=1, bias=True)
  (fc1): Linear(in_features=64, out_features=32, bias=True)
  (fc2): Linear(in_features=32, out_features=2, bias=True)
  (leaky_relu): LeakyReLU(negative_slope=0.01)
  (softmax): Softmax(dim=1)
)","[('delta_intraday', 'EBAY'), ('delta_overnight', 'EBAY'), ('avg_return_5d', 'EBAY'), ('price_to_ma_5d', 'EBAY'), ('price_location_5d', 'EBAY'), ('avg_volume_5d', 'EBAY'), ('delta_volume', 'EBAY'), ('return', 'EBAY')]",0.65,0.4766355140186916,0.5833333333333334
ECL,0.00045601309588682513,0.005561114345303763,"EnhancedDirectionPredictionModel(
  (lstm): LSTM(8, 64, num_layers=3, batch_first=True, dropout=0.2)
  (dropout): Dropout(p=0.2, inplace=False)
  (attention): Linear(in_features=64, out_features=1, bias=True)
  (fc1): Linear(in_features=64, out_features=32, bias=True)
  (fc2): Linear(in_features=32, out_features=2, bias=True)
  (leaky_relu): LeakyReLU(negative_slope=0.01)
  (softmax): Softmax(dim=1)
)","[('avg_volume_60d', 'ECL'), ('avg_std_5d', 'ECL'), ('delta_open', 'ECL'), ('avg_range_60d', 'ECL'), ('avg_range_5d', 'ECL'), ('avg_std_60d', 'ECL'), ('delta_high', 'ECL'), ('delta_volume', 'ECL')]",0.65,0.4953271028037383,0.7142857142857143
ED,0.0008136314923012465,0.006629674183377175,"EnhancedDirectionPredictionModel(
  (lstm): LSTM(8, 64, num_layers=3, batch_first=True, dropout=0.2)
  (dropout): Dropout(p=0.2, inplace=False)
  (attention): Linear(in_features=64, out_features=1, bias=True)
  (fc1): Linear(in_features=64, out_features=32, bias=True)
  (fc2): Linear(in_features=32, out_features=2, bias=True)
  (leaky_relu): LeakyReLU(negative_slope=0.01)
  (softmax): Softmax(dim=1)
)","[('avg_std_20d', 'ED'), ('avg_volume_5d', 'ED'), ('avg_range_20d', 'ED'), ('avg_return_20d', 'ED'), ('avg_return_5d', 'ED'), ('price_location_5d', 'ED'), ('price_to_ma_5d', 'ED'), ('avg_return_60d', 'ED')]",0.65,0.514018691588785,0.5151515151515151
EFX,0.0004621638455758003,0.008481687624995701,"EnhancedDirectionPredictionModel(
  (lstm): LSTM(8, 64, num_layers=3, batch_first=True, dropout=0.2)
  (dropout): Dropout(p=0.2, inplace=False)
  (attention): Linear(in_features=64, out_features=1, bias=True)
  (fc1): Linear(in_features=64, out_features=32, bias=True)
  (fc2): Linear(in_features=32, out_features=2, bias=True)
  (leaky_relu): LeakyReLU(negative_slope=0.01)
  (softmax): Softmax(dim=1)
)","[('avg_range_20d', 'EFX'), ('avg_std_20d', 'EFX'), ('avg_volume_20d', 'EFX'), ('avg_std_5d', 'EFX'), ('delta_volume', 'EFX'), ('avg_range_5d', 'EFX'), ('avg_return_60d', 'EFX'), ('avg_volume_5d', 'EFX')]",0.65,0.4953271028037383,0.4880952380952381
EG,0.0011882549770765574,0.005729205995523905,"EnhancedDirectionPredictionModel(
  (lstm): LSTM(8, 64, num_layers=3, batch_first=True, dropout=0.2)
  (dropout): Dropout(p=0.2, inplace=False)
  (attention): Linear(in_features=64, out_features=1, bias=True)
  (fc1): Linear(in_features=64, out_features=32, bias=True)
  (fc2): Linear(in_features=32, out_features=2, bias=True)
  (leaky_relu): LeakyReLU(negative_slope=0.01)
  (softmax): Softmax(dim=1)
)","[('price_location_60d', 'EG'), ('price_to_ma_60d', 'EG'), ('avg_return_60d', 'EG'), ('avg_return_20d', 'EG'), ('price_to_ma_20d', 'EG'), ('price_location_20d', 'EG'), ('delta_intraday', 'EG'), ('delta_overnight', 'EG')]",0.65,0.5420560747663551,0.5192307692307693
EIX,-0.0019577356509650977,0.007609413463659791,"EnhancedDirectionPredictionModel(
  (lstm): LSTM(8, 64, num_layers=3, batch_first=True, dropout=0.2)
  (dropout): Dropout(p=0.2, inplace=False)
  (attention): Linear(in_features=64, out_features=1, bias=True)
  (fc1): Linear(in_features=64, out_features=32, bias=True)
  (fc2): Linear(in_features=32, out_features=2, bias=True)
  (leaky_relu): LeakyReLU(negative_slope=0.01)
  (softmax): Softmax(dim=1)
)","[('avg_return_20d', 'EIX'), ('price_location_20d', 'EIX'), ('price_to_ma_20d', 'EIX'), ('delta_volume', 'EIX'), ('price_location_5d', 'EIX'), ('avg_return_5d', 'EIX'), ('delta_open', 'EIX'), ('price_to_ma_5d', 'EIX')]",0.65,0.48598130841121495,0.47761194029850745
EL,0.0014252411835546286,0.010860053691994774,"EnhancedDirectionPredictionModel(
  (lstm): LSTM(8, 64, num_layers=3, batch_first=True, dropout=0.2)
  (dropout): Dropout(p=0.2, inplace=False)
  (attention): Linear(in_features=64, out_features=1, bias=True)
  (fc1): Linear(in_features=64, out_features=32, bias=True)
  (fc2): Linear(in_features=32, out_features=2, bias=True)
  (leaky_relu): LeakyReLU(negative_slope=0.01)
  (softmax): Softmax(dim=1)
)","[('price_location_5d', 'EL'), ('delta_intraday', 'EL'), ('return', 'EL'), ('price_to_ma_5d', 'EL'), ('avg_return_5d', 'EL'), ('avg_return_20d', 'EL'), ('price_to_ma_20d', 'EL'), ('delta_high', 'EL')]",0.65,0.514018691588785,0.5
ELV,0.0019087234317590356,0.007612094205068894,"EnhancedDirectionPredictionModel(
  (lstm): LSTM(8, 64, num_layers=3, batch_first=True, dropout=0.2)
  (dropout): Dropout(p=0.2, inplace=False)
  (attention): Linear(in_features=64, out_features=1, bias=True)
  (fc1): Linear(in_features=64, out_features=32, bias=True)
  (fc2): Linear(in_features=32, out_features=2, bias=True)
  (leaky_relu): LeakyReLU(negative_slope=0.01)
  (softmax): Softmax(dim=1)
)","[('delta_overnight', 'ELV'), ('delta_high', 'ELV'), ('avg_volume_20d', 'ELV'), ('delta_open', 'ELV'), ('avg_volume_5d', 'ELV'), ('delta_intraday', 'ELV'), ('delta_low', 'ELV'), ('avg_std_60d', 'ELV')]",0.65,0.5700934579439252,0.76
EMN,-0.0004713913740914812,0.007535788300348317,"EnhancedDirectionPredictionModel(
  (lstm): LSTM(8, 64, num_layers=3, batch_first=True, dropout=0.2)
  (dropout): Dropout(p=0.2, inplace=False)
  (attention): Linear(in_features=64, out_features=1, bias=True)
  (fc1): Linear(in_features=64, out_features=32, bias=True)
  (fc2): Linear(in_features=32, out_features=2, bias=True)
  (leaky_relu): LeakyReLU(negative_slope=0.01)
  (softmax): Softmax(dim=1)
)","[('avg_volume_60d', 'EMN'), ('avg_return_5d', 'EMN'), ('avg_std_5d', 'EMN'), ('price_location_5d', 'EMN'), ('avg_volume_5d', 'EMN'), ('avg_volume_20d', 'EMN'), ('price_to_ma_5d', 'EMN'), ('delta_overnight', 'EMN')]",0.65,0.5700934579439252,0.5106382978723404
EMR,0.0010240166728098233,0.007699595052412287,"EnhancedDirectionPredictionModel(
  (lstm): LSTM(8, 64, num_layers=3, batch_first=True, dropout=0.2)
  (dropout): Dropout(p=0.2, inplace=False)
  (attention): Linear(in_features=64, out_features=1, bias=True)
  (fc1): Linear(in_features=64, out_features=32, bias=True)
  (fc2): Linear(in_features=32, out_features=2, bias=True)
  (leaky_relu): LeakyReLU(negative_slope=0.01)
  (softmax): Softmax(dim=1)
)","[('avg_return_60d', 'EMR'), ('price_location_60d', 'EMR'), ('avg_std_20d', 'EMR'), ('avg_volume_5d', 'EMR'), ('price_to_ma_60d', 'EMR'), ('price_location_20d', 'EMR'), ('price_location_5d', 'EMR'), ('avg_range_20d', 'EMR')]",0.65,0.6355140186915887,0.6666666666666666
ENPH,-0.0005127790450598428,0.013561959286330739,"EnhancedDirectionPredictionModel(
  (lstm): LSTM(8, 64, num_layers=3, batch_first=True, dropout=0.2)
  (dropout): Dropout(p=0.2, inplace=False)
  (attention): Linear(in_features=64, out_features=1, bias=True)
  (fc1): Linear(in_features=64, out_features=32, bias=True)
  (fc2): Linear(in_features=32, out_features=2, bias=True)
  (leaky_relu): LeakyReLU(negative_slope=0.01)
  (softmax): Softmax(dim=1)
)","[('delta_intraday', 'ENPH'), ('avg_range_5d', 'ENPH'), ('avg_std_20d', 'ENPH'), ('avg_range_20d', 'ENPH'), ('avg_range_60d', 'ENPH'), ('delta_overnight', 'ENPH'), ('price_location_60d', 'ENPH'), ('return', 'ENPH')]",0.65,0.5794392523364486,0.5714285714285714
EOG,0.00038498404991268244,0.0070482645542615475,"EnhancedDirectionPredictionModel(
  (lstm): LSTM(8, 64, num_layers=3, batch_first=True, dropout=0.2)
  (dropout): Dropout(p=0.2, inplace=False)
  (attention): Linear(in_features=64, out_features=1, bias=True)
  (fc1): Linear(in_features=64, out_features=32, bias=True)
  (fc2): Linear(in_features=32, out_features=2, bias=True)
  (leaky_relu): LeakyReLU(negative_slope=0.01)
  (softmax): Softmax(dim=1)
)","[('avg_volume_5d', 'EOG'), ('price_location_60d', 'EOG'), ('avg_volume_60d', 'EOG'), ('avg_range_5d', 'EOG'), ('price_to_ma_60d', 'EOG'), ('avg_return_60d', 'EOG'), ('avg_volume_20d', 'EOG'), ('delta_open', 'EOG')]",0.65,0.5046728971962616,0.5
EPAM,-0.0011961537098934415,0.008367372871973667,"EnhancedDirectionPredictionModel(
  (lstm): LSTM(8, 64, num_layers=3, batch_first=True, dropout=0.2)
  (dropout): Dropout(p=0.2, inplace=False)
  (attention): Linear(in_features=64, out_features=1, bias=True)
  (fc1): Linear(in_features=64, out_features=32, bias=True)
  (fc2): Linear(in_features=32, out_features=2, bias=True)
  (leaky_relu): LeakyReLU(negative_slope=0.01)
  (softmax): Softmax(dim=1)
)","[('avg_volume_60d', 'EPAM'), ('delta_high', 'EPAM'), ('delta_open', 'EPAM'), ('avg_return_5d', 'EPAM'), ('avg_std_60d', 'EPAM'), ('avg_volume_20d', 'EPAM'), ('avg_range_60d', 'EPAM'), ('price_to_ma_5d', 'EPAM')]",0.65,0.5327102803738317,0.5
EQIX,-0.0011846470852255844,0.006186056047890312,"EnhancedDirectionPredictionModel(
  (lstm): LSTM(8, 64, num_layers=3, batch_first=True, dropout=0.2)
  (dropout): Dropout(p=0.2, inplace=False)
  (attention): Linear(in_features=64, out_features=1, bias=True)
  (fc1): Linear(in_features=64, out_features=32, bias=True)
  (fc2): Linear(in_features=32, out_features=2, bias=True)
  (leaky_relu): LeakyReLU(negative_slope=0.01)
  (softmax): Softmax(dim=1)
)","[('avg_volume_5d', 'EQIX'), ('delta_range', 'EQIX'), ('price_location_5d', 'EQIX'), ('avg_range_5d', 'EQIX'), ('delta_low', 'EQIX'), ('avg_std_5d', 'EQIX'), ('avg_return_5d', 'EQIX'), ('avg_range_20d', 'EQIX')]",0.65,0.514018691588785,0.5466666666666666
EQR,-0.0011893660855081174,0.005964111356210302,"EnhancedDirectionPredictionModel(
  (lstm): LSTM(8, 64, num_layers=3, batch_first=True, dropout=0.2)
  (dropout): Dropout(p=0.2, inplace=False)
  (attention): Linear(in_features=64, out_features=1, bias=True)
  (fc1): Linear(in_features=64, out_features=32, bias=True)
  (fc2): Linear(in_features=32, out_features=2, bias=True)
  (leaky_relu): LeakyReLU(negative_slope=0.01)
  (softmax): Softmax(dim=1)
)","[('delta_volume', 'EQR'), ('price_to_ma_20d', 'EQR'), ('avg_return_20d', 'EQR'), ('price_to_ma_60d', 'EQR'), ('delta_intraday', 'EQR'), ('avg_volume_5d', 'EQR'), ('avg_return_5d', 'EQR'), ('delta_overnight', 'EQR')]",0.65,0.45794392523364486,0.4666666666666667
EQT,-0.0001485958832323767,0.010827466627803121,"EnhancedDirectionPredictionModel(
  (lstm): LSTM(8, 64, num_layers=3, batch_first=True, dropout=0.2)
  (dropout): Dropout(p=0.2, inplace=False)
  (attention): Linear(in_features=64, out_features=1, bias=True)
  (fc1): Linear(in_features=64, out_features=32, bias=True)
  (fc2): Linear(in_features=32, out_features=2, bias=True)
  (leaky_relu): LeakyReLU(negative_slope=0.01)
  (softmax): Softmax(dim=1)
)","[('price_to_ma_20d', 'EQT'), ('price_location_20d', 'EQT'), ('avg_return_20d', 'EQT'), ('avg_return_5d', 'EQT'), ('price_location_60d', 'EQT'), ('price_to_ma_5d', 'EQT'), ('avg_volume_5d', 'EQT'), ('price_location_5d', 'EQT')]",0.65,0.40186915887850466,0.5833333333333334
ERIE,0.0,0.007814829144868134,"EnhancedDirectionPredictionModel(
  (lstm): LSTM(8, 64, num_layers=3, batch_first=True, dropout=0.2)
  (dropout): Dropout(p=0.2, inplace=False)
  (attention): Linear(in_features=64, out_features=1, bias=True)
  (fc1): Linear(in_features=64, out_features=32, bias=True)
  (fc2): Linear(in_features=32, out_features=2, bias=True)
  (leaky_relu): LeakyReLU(negative_slope=0.01)
  (softmax): Softmax(dim=1)
)","[('avg_range_60d', 'ERIE'), ('delta_range', 'ERIE'), ('price_to_ma_60d', 'ERIE'), ('price_location_60d', 'ERIE'), ('delta_high', 'ERIE'), ('delta_volume', 'ERIE'), ('avg_return_20d', 'ERIE'), ('avg_return_60d', 'ERIE')]",0.65,0.4766355140186916,0.0
ES,0.0,0.00737182408194066,"EnhancedDirectionPredictionModel(
  (lstm): LSTM(8, 64, num_layers=3, batch_first=True, dropout=0.2)
  (dropout): Dropout(p=0.2, inplace=False)
  (attention): Linear(in_features=64, out_features=1, bias=True)
  (fc1): Linear(in_features=64, out_features=32, bias=True)
  (fc2): Linear(in_features=32, out_features=2, bias=True)
  (leaky_relu): LeakyReLU(negative_slope=0.01)
  (softmax): Softmax(dim=1)
)","[('delta_volume', 'ES'), ('avg_return_60d', 'ES'), ('price_to_ma_60d', 'ES'), ('price_location_60d', 'ES'), ('delta_intraday', 'ES'), ('return', 'ES'), ('avg_std_20d', 'ES'), ('avg_std_5d', 'ES')]",0.65,0.45794392523364486,0.0
ESS,0.00021289154519777591,0.006350300926180051,"EnhancedDirectionPredictionModel(
  (lstm): LSTM(8, 64, num_layers=3, batch_first=True, dropout=0.2)
  (dropout): Dropout(p=0.2, inplace=False)
  (attention): Linear(in_features=64, out_features=1, bias=True)
  (fc1): Linear(in_features=64, out_features=32, bias=True)
  (fc2): Linear(in_features=32, out_features=2, bias=True)
  (leaky_relu): LeakyReLU(negative_slope=0.01)
  (softmax): Softmax(dim=1)
)","[('delta_volume', 'ESS'), ('delta_overnight', 'ESS'), ('avg_return_5d', 'ESS'), ('price_to_ma_20d', 'ESS'), ('delta_range', 'ESS'), ('avg_return_20d', 'ESS'), ('avg_std_5d', 'ESS'), ('price_location_20d', 'ESS')]",0.65,0.5420560747663551,0.6538461538461539
ETN,-0.0020756966420298127,0.009251376684072582,"EnhancedDirectionPredictionModel(
  (lstm): LSTM(8, 64, num_layers=3, batch_first=True, dropout=0.2)
  (dropout): Dropout(p=0.2, inplace=False)
  (attention): Linear(in_features=64, out_features=1, bias=True)
  (fc1): Linear(in_features=64, out_features=32, bias=True)
  (fc2): Linear(in_features=32, out_features=2, bias=True)
  (leaky_relu): LeakyReLU(negative_slope=0.01)
  (softmax): Softmax(dim=1)
)","[('delta_range', 'ETN'), ('price_to_ma_5d', 'ETN'), ('delta_high', 'ETN'), ('delta_intraday', 'ETN'), ('price_location_5d', 'ETN'), ('delta_volume', 'ETN'), ('return', 'ETN'), ('price_to_ma_20d', 'ETN')]",0.65,0.4766355140186916,0.45454545454545453
ETR,0.0,0.006573892507035386,"EnhancedDirectionPredictionModel(
  (lstm): LSTM(8, 64, num_layers=3, batch_first=True, dropout=0.2)
  (dropout): Dropout(p=0.2, inplace=False)
  (attention): Linear(in_features=64, out_features=1, bias=True)
  (fc1): Linear(in_features=64, out_features=32, bias=True)
  (fc2): Linear(in_features=32, out_features=2, bias=True)
  (leaky_relu): LeakyReLU(negative_slope=0.01)
  (softmax): Softmax(dim=1)
)","[('avg_volume_20d', 'ETR'), ('price_location_60d', 'ETR'), ('avg_return_60d', 'ETR'), ('avg_std_20d', 'ETR'), ('avg_range_20d', 'ETR'), ('avg_volume_5d', 'ETR'), ('price_to_ma_60d', 'ETR'), ('delta_volume', 'ETR')]",0.65,0.4485981308411215,0.0
EVRG,0.0010861272866367004,0.004956453265491758,"EnhancedDirectionPredictionModel(
  (lstm): LSTM(8, 64, num_layers=3, batch_first=True, dropout=0.2)
  (dropout): Dropout(p=0.2, inplace=False)
  (attention): Linear(in_features=64, out_features=1, bias=True)
  (fc1): Linear(in_features=64, out_features=32, bias=True)
  (fc2): Linear(in_features=32, out_features=2, bias=True)
  (leaky_relu): LeakyReLU(negative_slope=0.01)
  (softmax): Softmax(dim=1)
)","[('delta_range', 'EVRG'), ('avg_volume_20d', 'EVRG'), ('avg_std_60d', 'EVRG'), ('avg_std_5d', 'EVRG'), ('avg_return_5d', 'EVRG'), ('price_location_5d', 'EVRG'), ('avg_range_5d', 'EVRG'), ('price_to_ma_5d', 'EVRG')]",0.65,0.48598130841121495,0.6578947368421053
EW,0.0010052575686963893,0.0060501756788626584,"EnhancedDirectionPredictionModel(
  (lstm): LSTM(8, 64, num_layers=3, batch_first=True, dropout=0.2)
  (dropout): Dropout(p=0.2, inplace=False)
  (attention): Linear(in_features=64, out_features=1, bias=True)
  (fc1): Linear(in_features=64, out_features=32, bias=True)
  (fc2): Linear(in_features=32, out_features=2, bias=True)
  (leaky_relu): LeakyReLU(negative_slope=0.01)
  (softmax): Softmax(dim=1)
)","[('avg_return_60d', 'EW'), ('avg_return_20d', 'EW'), ('avg_std_20d', 'EW'), ('price_to_ma_60d', 'EW'), ('price_location_60d', 'EW'), ('avg_range_20d', 'EW'), ('price_to_ma_20d', 'EW'), ('price_location_20d', 'EW')]",0.65,0.5607476635514018,0.5348837209302325
EXC,0.0010631801684444417,0.006349456305075017,"EnhancedDirectionPredictionModel(
  (lstm): LSTM(8, 64, num_layers=3, batch_first=True, dropout=0.2)
  (dropout): Dropout(p=0.2, inplace=False)
  (attention): Linear(in_features=64, out_features=1, bias=True)
  (fc1): Linear(in_features=64, out_features=32, bias=True)
  (fc2): Linear(in_features=32, out_features=2, bias=True)
  (leaky_relu): LeakyReLU(negative_slope=0.01)
  (softmax): Softmax(dim=1)
)","[('avg_volume_5d', 'EXC'), ('avg_volume_20d', 'EXC'), ('avg_volume_60d', 'EXC'), ('delta_volume', 'EXC'), ('delta_low', 'EXC'), ('avg_range_20d', 'EXC'), ('delta_overnight', 'EXC'), ('price_to_ma_5d', 'EXC')]",0.65,0.4766355140186916,0.6060606060606061
EXPD,0.0002552920243099517,0.007071240758267239,"EnhancedDirectionPredictionModel(
  (lstm): LSTM(8, 64, num_layers=3, batch_first=True, dropout=0.2)
  (dropout): Dropout(p=0.2, inplace=False)
  (attention): Linear(in_features=64, out_features=1, bias=True)
  (fc1): Linear(in_features=64, out_features=32, bias=True)
  (fc2): Linear(in_features=32, out_features=2, bias=True)
  (leaky_relu): LeakyReLU(negative_slope=0.01)
  (softmax): Softmax(dim=1)
)","[('delta_open', 'EXPD'), ('price_location_5d', 'EXPD'), ('price_to_ma_5d', 'EXPD'), ('delta_high', 'EXPD'), ('avg_return_5d', 'EXPD'), ('price_location_20d', 'EXPD'), ('price_location_60d', 'EXPD'), ('price_to_ma_20d', 'EXPD')]",0.65,0.5327102803738317,0.48484848484848486
EXPE,0.0018740928649413034,0.0101793909249502,"EnhancedDirectionPredictionModel(
  (lstm): LSTM(8, 64, num_layers=3, batch_first=True, dropout=0.2)
  (dropout): Dropout(p=0.2, inplace=False)
  (attention): Linear(in_features=64, out_features=1, bias=True)
  (fc1): Linear(in_features=64, out_features=32, bias=True)
  (fc2): Linear(in_features=32, out_features=2, bias=True)
  (leaky_relu): LeakyReLU(negative_slope=0.01)
  (softmax): Softmax(dim=1)
)","[('avg_std_5d', 'EXPE'), ('avg_return_5d', 'EXPE'), ('avg_std_20d', 'EXPE'), ('avg_volume_5d', 'EXPE'), ('price_location_60d', 'EXPE'), ('price_to_ma_20d', 'EXPE'), ('avg_return_60d', 'EXPE'), ('price_location_20d', 'EXPE')]",0.65,0.5046728971962616,0.49019607843137253
EXR,-0.00030506612564193896,0.006445835496952425,"EnhancedDirectionPredictionModel(
  (lstm): LSTM(8, 64, num_layers=3, batch_first=True, dropout=0.2)
  (dropout): Dropout(p=0.2, inplace=False)
  (attention): Linear(in_features=64, out_features=1, bias=True)
  (fc1): Linear(in_features=64, out_features=32, bias=True)
  (fc2): Linear(in_features=32, out_features=2, bias=True)
  (leaky_relu): LeakyReLU(negative_slope=0.01)
  (softmax): Softmax(dim=1)
)","[('price_location_20d', 'EXR'), ('price_location_60d', 'EXR'), ('delta_volume', 'EXR'), ('avg_return_20d', 'EXR'), ('price_to_ma_60d', 'EXR'), ('price_location_5d', 'EXR'), ('price_to_ma_20d', 'EXR'), ('avg_std_5d', 'EXR')]",0.65,0.5233644859813084,0.5333333333333333
F,0.0,0.008822415385673549,"EnhancedDirectionPredictionModel(
  (lstm): LSTM(8, 64, num_layers=3, batch_first=True, dropout=0.2)
  (dropout): Dropout(p=0.2, inplace=False)
  (attention): Linear(in_features=64, out_features=1, bias=True)
  (fc1): Linear(in_features=64, out_features=32, bias=True)
  (fc2): Linear(in_features=32, out_features=2, bias=True)
  (leaky_relu): LeakyReLU(negative_slope=0.01)
  (softmax): Softmax(dim=1)
)","[('avg_return_60d', 'F'), ('price_to_ma_60d', 'F'), ('price_location_60d', 'F'), ('avg_volume_5d', 'F'), ('price_location_20d', 'F'), ('avg_return_5d', 'F'), ('delta_open', 'F'), ('delta_volume', 'F')]",0.65,0.45794392523364486,0.0
FANG,0.0004001668404690275,0.009264126289934959,"EnhancedDirectionPredictionModel(
  (lstm): LSTM(8, 64, num_layers=3, batch_first=True, dropout=0.2)
  (dropout): Dropout(p=0.2, inplace=False)
  (attention): Linear(in_features=64, out_features=1, bias=True)
  (fc1): Linear(in_features=64, out_features=32, bias=True)
  (fc2): Linear(in_features=32, out_features=2, bias=True)
  (leaky_relu): LeakyReLU(negative_slope=0.01)
  (softmax): Softmax(dim=1)
)","[('delta_volume', 'FANG'), ('price_location_60d', 'FANG'), ('delta_range', 'FANG'), ('avg_std_20d', 'FANG'), ('price_to_ma_5d', 'FANG'), ('avg_return_5d', 'FANG'), ('avg_volume_20d', 'FANG'), ('price_location_20d', 'FANG')]",0.65,0.4953271028037383,0.5681818181818182
FAST,0.001685301050011083,0.006488050996851802,"EnhancedDirectionPredictionModel(
  (lstm): LSTM(8, 64, num_layers=3, batch_first=True, dropout=0.2)
  (dropout): Dropout(p=0.2, inplace=False)
  (attention): Linear(in_features=64, out_features=1, bias=True)
  (fc1): Linear(in_features=64, out_features=32, bias=True)
  (fc2): Linear(in_features=32, out_features=2, bias=True)
  (leaky_relu): LeakyReLU(negative_slope=0.01)
  (softmax): Softmax(dim=1)
)","[('price_to_ma_60d', 'FAST'), ('avg_return_60d', 'FAST'), ('price_location_60d', 'FAST'), ('price_to_ma_20d', 'FAST'), ('delta_volume', 'FAST'), ('price_location_20d', 'FAST'), ('avg_range_20d', 'FAST'), ('avg_return_20d', 'FAST')]",0.65,0.48598130841121495,0.4864864864864865
FCX,-0.00016686060992251252,0.011370453981917036,"EnhancedDirectionPredictionModel(
  (lstm): LSTM(8, 64, num_layers=3, batch_first=True, dropout=0.2)
  (dropout): Dropout(p=0.2, inplace=False)
  (attention): Linear(in_features=64, out_features=1, bias=True)
  (fc1): Linear(in_features=64, out_features=32, bias=True)
  (fc2): Linear(in_features=32, out_features=2, bias=True)
  (leaky_relu): LeakyReLU(negative_slope=0.01)
  (softmax): Softmax(dim=1)
)","[('avg_return_5d', 'FCX'), ('price_location_5d', 'FCX'), ('price_to_ma_20d', 'FCX'), ('avg_return_20d', 'FCX'), ('price_to_ma_60d', 'FCX'), ('price_location_60d', 'FCX'), ('price_location_20d', 'FCX'), ('price_to_ma_5d', 'FCX')]",0.65,0.42990654205607476,0.38461538461538464
FDS,-0.0010582781621916886,0.005442584215573279,"EnhancedDirectionPredictionModel(
  (lstm): LSTM(8, 64, num_layers=3, batch_first=True, dropout=0.2)
  (dropout): Dropout(p=0.2, inplace=False)
  (attention): Linear(in_features=64, out_features=1, bias=True)
  (fc1): Linear(in_features=64, out_features=32, bias=True)
  (fc2): Linear(in_features=32, out_features=2, bias=True)
  (leaky_relu): LeakyReLU(negative_slope=0.01)
  (softmax): Softmax(dim=1)
)","[('delta_volume', 'FDS'), ('delta_range', 'FDS'), ('delta_low', 'FDS'), ('delta_overnight', 'FDS'), ('avg_volume_60d', 'FDS'), ('price_to_ma_20d', 'FDS'), ('avg_return_20d', 'FDS'), ('avg_volume_20d', 'FDS')]",0.65,0.4672897196261682,0.38235294117647056
FDX,-6.231679799031034e-05,0.007039048470671886,"EnhancedDirectionPredictionModel(
  (lstm): LSTM(8, 64, num_layers=3, batch_first=True, dropout=0.2)
  (dropout): Dropout(p=0.2, inplace=False)
  (attention): Linear(in_features=64, out_features=1, bias=True)
  (fc1): Linear(in_features=64, out_features=32, bias=True)
  (fc2): Linear(in_features=32, out_features=2, bias=True)
  (leaky_relu): LeakyReLU(negative_slope=0.01)
  (softmax): Softmax(dim=1)
)","[('delta_high', 'FDX'), ('avg_return_5d', 'FDX'), ('delta_range', 'FDX'), ('delta_open', 'FDX'), ('delta_overnight', 'FDX'), ('delta_volume', 'FDX'), ('price_to_ma_60d', 'FDX'), ('price_to_ma_20d', 'FDX')]",0.65,0.5046728971962616,0.4666666666666667
FE,0.0004912404932948097,0.00606615775331678,"EnhancedDirectionPredictionModel(
  (lstm): LSTM(8, 64, num_layers=3, batch_first=True, dropout=0.2)
  (dropout): Dropout(p=0.2, inplace=False)
  (attention): Linear(in_features=64, out_features=1, bias=True)
  (fc1): Linear(in_features=64, out_features=32, bias=True)
  (fc2): Linear(in_features=32, out_features=2, bias=True)
  (leaky_relu): LeakyReLU(negative_slope=0.01)
  (softmax): Softmax(dim=1)
)","[('avg_volume_60d', 'FE'), ('delta_overnight', 'FE'), ('price_to_ma_20d', 'FE'), ('price_to_ma_60d', 'FE'), ('delta_high', 'FE'), ('return', 'FE'), ('price_location_5d', 'FE'), ('delta_range', 'FE')]",0.65,0.4766355140186916,0.53125
FFIV,1.614560045350635e-05,0.0076829977406713285,"EnhancedDirectionPredictionModel(
  (lstm): LSTM(8, 64, num_layers=3, batch_first=True, dropout=0.2)
  (dropout): Dropout(p=0.2, inplace=False)
  (attention): Linear(in_features=64, out_features=1, bias=True)
  (fc1): Linear(in_features=64, out_features=32, bias=True)
  (fc2): Linear(in_features=32, out_features=2, bias=True)
  (leaky_relu): LeakyReLU(negative_slope=0.01)
  (softmax): Softmax(dim=1)
)","[('delta_range', 'FFIV'), ('avg_std_5d', 'FFIV'), ('avg_return_60d', 'FFIV'), ('delta_high', 'FFIV'), ('price_to_ma_60d', 'FFIV'), ('avg_range_5d', 'FFIV'), ('avg_return_20d', 'FFIV'), ('price_location_60d', 'FFIV')]",0.65,0.45794392523364486,0.5142857142857142
FI,-0.00018204385869084413,0.0074674423039320596,"EnhancedDirectionPredictionModel(
  (lstm): LSTM(8, 64, num_layers=3, batch_first=True, dropout=0.2)
  (dropout): Dropout(p=0.2, inplace=False)
  (attention): Linear(in_features=64, out_features=1, bias=True)
  (fc1): Linear(in_features=64, out_features=32, bias=True)
  (fc2): Linear(in_features=32, out_features=2, bias=True)
  (leaky_relu): LeakyReLU(negative_slope=0.01)
  (softmax): Softmax(dim=1)
)","[('avg_range_60d', 'FI'), ('avg_std_60d', 'FI'), ('avg_std_5d', 'FI'), ('delta_high', 'FI'), ('avg_std_20d', 'FI'), ('price_to_ma_5d', 'FI'), ('delta_intraday', 'FI'), ('avg_range_20d', 'FI')]",0.65,0.4766355140186916,0.515625
FICO,-0.0012332920362779932,0.008894298823525222,"EnhancedDirectionPredictionModel(
  (lstm): LSTM(8, 64, num_layers=3, batch_first=True, dropout=0.2)
  (dropout): Dropout(p=0.2, inplace=False)
  (attention): Linear(in_features=64, out_features=1, bias=True)
  (fc1): Linear(in_features=64, out_features=32, bias=True)
  (fc2): Linear(in_features=32, out_features=2, bias=True)
  (leaky_relu): LeakyReLU(negative_slope=0.01)
  (softmax): Softmax(dim=1)
)","[('avg_range_20d', 'FICO'), ('avg_range_5d', 'FICO'), ('price_to_ma_20d', 'FICO'), ('avg_std_20d', 'FICO'), ('avg_return_20d', 'FICO'), ('price_to_ma_60d', 'FICO'), ('avg_range_60d', 'FICO'), ('price_location_60d', 'FICO')]",0.65,0.5327102803738317,0.5416666666666666
FIS,-0.0003348649024536768,0.007038597911205801,"EnhancedDirectionPredictionModel(
  (lstm): LSTM(8, 64, num_layers=3, batch_first=True, dropout=0.2)
  (dropout): Dropout(p=0.2, inplace=False)
  (attention): Linear(in_features=64, out_features=1, bias=True)
  (fc1): Linear(in_features=64, out_features=32, bias=True)
  (fc2): Linear(in_features=32, out_features=2, bias=True)
  (leaky_relu): LeakyReLU(negative_slope=0.01)
  (softmax): Softmax(dim=1)
)","[('avg_volume_5d', 'FIS'), ('delta_overnight', 'FIS'), ('avg_volume_60d', 'FIS'), ('delta_high', 'FIS'), ('avg_return_20d', 'FIS'), ('return', 'FIS'), ('delta_volume', 'FIS'), ('avg_range_60d', 'FIS')]",0.65,0.4485981308411215,0.4074074074074074
FITB,0.0,0.006661341284900534,"EnhancedDirectionPredictionModel(
  (lstm): LSTM(8, 64, num_layers=3, batch_first=True, dropout=0.2)
  (dropout): Dropout(p=0.2, inplace=False)
  (attention): Linear(in_features=64, out_features=1, bias=True)
  (fc1): Linear(in_features=64, out_features=32, bias=True)
  (fc2): Linear(in_features=32, out_features=2, bias=True)
  (leaky_relu): LeakyReLU(negative_slope=0.01)
  (softmax): Softmax(dim=1)
)","[('price_location_5d', 'FITB'), ('delta_high', 'FITB'), ('price_to_ma_5d', 'FITB'), ('avg_return_5d', 'FITB'), ('delta_intraday', 'FITB'), ('avg_range_20d', 'FITB'), ('avg_std_20d', 'FITB'), ('return', 'FITB')]",0.65,0.5046728971962616,0.0
FOX,0.0005878621619824568,0.007792088010949955,"EnhancedDirectionPredictionModel(
  (lstm): LSTM(8, 64, num_layers=3, batch_first=True, dropout=0.2)
  (dropout): Dropout(p=0.2, inplace=False)
  (attention): Linear(in_features=64, out_features=1, bias=True)
  (fc1): Linear(in_features=64, out_features=32, bias=True)
  (fc2): Linear(in_features=32, out_features=2, bias=True)
  (leaky_relu): LeakyReLU(negative_slope=0.01)
  (softmax): Softmax(dim=1)
)","[('delta_open', 'FOX'), ('avg_return_5d', 'FOX'), ('price_to_ma_20d', 'FOX'), ('price_to_ma_5d', 'FOX'), ('price_location_20d', 'FOX'), ('avg_return_20d', 'FOX'), ('price_to_ma_60d', 'FOX'), ('price_location_60d', 'FOX')]",0.65,0.4672897196261682,0.5217391304347826
FOXA,0.0007987139605041478,0.007989187981842717,"EnhancedDirectionPredictionModel(
  (lstm): LSTM(8, 64, num_layers=3, batch_first=True, dropout=0.2)
  (dropout): Dropout(p=0.2, inplace=False)
  (attention): Linear(in_features=64, out_features=1, bias=True)
  (fc1): Linear(in_features=64, out_features=32, bias=True)
  (fc2): Linear(in_features=32, out_features=2, bias=True)
  (leaky_relu): LeakyReLU(negative_slope=0.01)
  (softmax): Softmax(dim=1)
)","[('price_location_20d', 'FOXA'), ('price_to_ma_20d', 'FOXA'), ('price_location_60d', 'FOXA'), ('price_to_ma_60d', 'FOXA'), ('avg_return_5d', 'FOXA'), ('delta_open', 'FOXA'), ('price_to_ma_5d', 'FOXA'), ('avg_return_20d', 'FOXA')]",0.65,0.4953271028037383,0.5333333333333333
FRT,0.001115629442389142,0.005928595112444602,"EnhancedDirectionPredictionModel(
  (lstm): LSTM(8, 64, num_layers=3, batch_first=True, dropout=0.2)
  (dropout): Dropout(p=0.2, inplace=False)
  (attention): Linear(in_features=64, out_features=1, bias=True)
  (fc1): Linear(in_features=64, out_features=32, bias=True)
  (fc2): Linear(in_features=32, out_features=2, bias=True)
  (leaky_relu): LeakyReLU(negative_slope=0.01)
  (softmax): Softmax(dim=1)
)","[('delta_overnight', 'FRT'), ('delta_intraday', 'FRT'), ('avg_range_20d', 'FRT'), ('price_location_5d', 'FRT'), ('price_to_ma_60d', 'FRT'), ('avg_range_60d', 'FRT'), ('avg_return_60d', 'FRT'), ('price_location_60d', 'FRT')]",0.65,0.5514018691588785,0.6470588235294118
FSLR,0.00034954731441361707,0.014798269806497554,"EnhancedDirectionPredictionModel(
  (lstm): LSTM(8, 64, num_layers=3, batch_first=True, dropout=0.2)
  (dropout): Dropout(p=0.2, inplace=False)
  (attention): Linear(in_features=64, out_features=1, bias=True)
  (fc1): Linear(in_features=64, out_features=32, bias=True)
  (fc2): Linear(in_features=32, out_features=2, bias=True)
  (leaky_relu): LeakyReLU(negative_slope=0.01)
  (softmax): Softmax(dim=1)
)","[('avg_std_5d', 'FSLR'), ('avg_volume_60d', 'FSLR'), ('delta_range', 'FSLR'), ('delta_volume', 'FSLR'), ('avg_std_20d', 'FSLR'), ('avg_range_5d', 'FSLR'), ('avg_std_60d', 'FSLR'), ('avg_volume_5d', 'FSLR')]",0.65,0.5233644859813084,0.4642857142857143
FTNT,0.0007006171721841848,0.00923168633693654,"EnhancedDirectionPredictionModel(
  (lstm): LSTM(8, 64, num_layers=3, batch_first=True, dropout=0.2)
  (dropout): Dropout(p=0.2, inplace=False)
  (attention): Linear(in_features=64, out_features=1, bias=True)
  (fc1): Linear(in_features=64, out_features=32, bias=True)
  (fc2): Linear(in_features=32, out_features=2, bias=True)
  (leaky_relu): LeakyReLU(negative_slope=0.01)
  (softmax): Softmax(dim=1)
)","[('avg_std_60d', 'FTNT'), ('return', 'FTNT'), ('avg_volume_60d', 'FTNT'), ('price_to_ma_20d', 'FTNT'), ('delta_high', 'FTNT'), ('avg_return_5d', 'FTNT'), ('avg_range_60d', 'FTNT'), ('delta_intraday', 'FTNT')]",0.65,0.5233644859813084,0.5393258426966292
FTV,-0.0005734483574554056,0.006345562908240414,"EnhancedDirectionPredictionModel(
  (lstm): LSTM(8, 64, num_layers=3, batch_first=True, dropout=0.2)
  (dropout): Dropout(p=0.2, inplace=False)
  (attention): Linear(in_features=64, out_features=1, bias=True)
  (fc1): Linear(in_features=64, out_features=32, bias=True)
  (fc2): Linear(in_features=32, out_features=2, bias=True)
  (leaky_relu): LeakyReLU(negative_slope=0.01)
  (softmax): Softmax(dim=1)
)","[('price_location_60d', 'FTV'), ('avg_return_60d', 'FTV'), ('avg_return_5d', 'FTV'), ('price_to_ma_60d', 'FTV'), ('delta_high', 'FTV'), ('price_to_ma_5d', 'FTV'), ('avg_volume_20d', 'FTV'), ('price_location_5d', 'FTV')]",0.65,0.514018691588785,0.5454545454545454
GD,0.0007414112016205429,0.005685017545965238,"EnhancedDirectionPredictionModel(
  (lstm): LSTM(8, 64, num_layers=3, batch_first=True, dropout=0.2)
  (dropout): Dropout(p=0.2, inplace=False)
  (attention): Linear(in_features=64, out_features=1, bias=True)
  (fc1): Linear(in_features=64, out_features=32, bias=True)
  (fc2): Linear(in_features=32, out_features=2, bias=True)
  (leaky_relu): LeakyReLU(negative_slope=0.01)
  (softmax): Softmax(dim=1)
)","[('avg_range_20d', 'GD'), ('avg_volume_5d', 'GD'), ('avg_range_5d', 'GD'), ('avg_range_60d', 'GD'), ('avg_std_5d', 'GD'), ('price_to_ma_20d', 'GD'), ('avg_std_20d', 'GD'), ('avg_std_60d', 'GD')]",0.65,0.5514018691588785,0.573170731707317
GDDY,0.0,0.00690569608485364,"EnhancedDirectionPredictionModel(
  (lstm): LSTM(8, 64, num_layers=3, batch_first=True, dropout=0.2)
  (dropout): Dropout(p=0.2, inplace=False)
  (attention): Linear(in_features=64, out_features=1, bias=True)
  (fc1): Linear(in_features=64, out_features=32, bias=True)
  (fc2): Linear(in_features=32, out_features=2, bias=True)
  (leaky_relu): LeakyReLU(negative_slope=0.01)
  (softmax): Softmax(dim=1)
)","[('avg_range_60d', 'GDDY'), ('avg_volume_60d', 'GDDY'), ('avg_std_60d', 'GDDY'), ('avg_return_60d', 'GDDY'), ('price_to_ma_60d', 'GDDY'), ('avg_return_5d', 'GDDY'), ('avg_volume_20d', 'GDDY'), ('price_to_ma_5d', 'GDDY')]",0.65,0.48598130841121495,0.0
GE,-0.00012632280050357318,0.00958702188442228,"EnhancedDirectionPredictionModel(
  (lstm): LSTM(8, 64, num_layers=3, batch_first=True, dropout=0.2)
  (dropout): Dropout(p=0.2, inplace=False)
  (attention): Linear(in_features=64, out_features=1, bias=True)
  (fc1): Linear(in_features=64, out_features=32, bias=True)
  (fc2): Linear(in_features=32, out_features=2, bias=True)
  (leaky_relu): LeakyReLU(negative_slope=0.01)
  (softmax): Softmax(dim=1)
)","[('delta_intraday', 'GE'), ('return', 'GE'), ('price_to_ma_20d', 'GE'), ('avg_return_20d', 'GE'), ('avg_volume_5d', 'GE'), ('delta_volume', 'GE'), ('delta_open', 'GE'), ('avg_volume_20d', 'GE')]",0.65,0.4953271028037383,0.6129032258064516
GEN,0.0010308234235450562,0.006515072026717526,"EnhancedDirectionPredictionModel(
  (lstm): LSTM(8, 64, num_layers=3, batch_first=True, dropout=0.2)
  (dropout): Dropout(p=0.2, inplace=False)
  (attention): Linear(in_features=64, out_features=1, bias=True)
  (fc1): Linear(in_features=64, out_features=32, bias=True)
  (fc2): Linear(in_features=32, out_features=2, bias=True)
  (leaky_relu): LeakyReLU(negative_slope=0.01)
  (softmax): Softmax(dim=1)
)","[('delta_overnight', 'GEN'), ('avg_std_20d', 'GEN'), ('delta_open', 'GEN'), ('avg_range_20d', 'GEN'), ('price_to_ma_5d', 'GEN'), ('avg_range_5d', 'GEN'), ('avg_return_60d', 'GEN'), ('price_to_ma_20d', 'GEN')]",0.65,0.5327102803738317,0.5588235294117647
GILD,-0.0003017002511521497,0.00798844199692172,"EnhancedDirectionPredictionModel(
  (lstm): LSTM(8, 64, num_layers=3, batch_first=True, dropout=0.2)
  (dropout): Dropout(p=0.2, inplace=False)
  (attention): Linear(in_features=64, out_features=1, bias=True)
  (fc1): Linear(in_features=64, out_features=32, bias=True)
  (fc2): Linear(in_features=32, out_features=2, bias=True)
  (leaky_relu): LeakyReLU(negative_slope=0.01)
  (softmax): Softmax(dim=1)
)","[('delta_volume', 'GILD'), ('avg_return_60d', 'GILD'), ('delta_intraday', 'GILD'), ('price_to_ma_60d', 'GILD'), ('delta_open', 'GILD'), ('avg_volume_20d', 'GILD'), ('delta_overnight', 'GILD'), ('avg_volume_60d', 'GILD')]",0.65,0.4766355140186916,0.5294117647058824
GIS,-8.248516164802181e-05,0.005683305840097923,"EnhancedDirectionPredictionModel(
  (lstm): LSTM(8, 64, num_layers=3, batch_first=True, dropout=0.2)
  (dropout): Dropout(p=0.2, inplace=False)
  (attention): Linear(in_features=64, out_features=1, bias=True)
  (fc1): Linear(in_features=64, out_features=32, bias=True)
  (fc2): Linear(in_features=32, out_features=2, bias=True)
  (leaky_relu): LeakyReLU(negative_slope=0.01)
  (softmax): Softmax(dim=1)
)","[('price_location_5d', 'GIS'), ('avg_std_20d', 'GIS'), ('avg_return_20d', 'GIS'), ('avg_range_5d', 'GIS'), ('avg_range_20d', 'GIS'), ('delta_open', 'GIS'), ('avg_volume_60d', 'GIS'), ('avg_return_5d', 'GIS')]",0.65,0.4953271028037383,0.46835443037974683
GL,0.0014965350624935173,0.007162166511536232,"EnhancedDirectionPredictionModel(
  (lstm): LSTM(8, 64, num_layers=3, batch_first=True, dropout=0.2)
  (dropout): Dropout(p=0.2, inplace=False)
  (attention): Linear(in_features=64, out_features=1, bias=True)
  (fc1): Linear(in_features=64, out_features=32, bias=True)
  (fc2): Linear(in_features=32, out_features=2, bias=True)
  (leaky_relu): LeakyReLU(negative_slope=0.01)
  (softmax): Softmax(dim=1)
)","[('return', 'GL'), ('delta_low', 'GL'), ('price_to_ma_20d', 'GL'), ('price_location_5d', 'GL'), ('delta_intraday', 'GL'), ('price_location_20d', 'GL'), ('avg_return_20d', 'GL'), ('avg_return_5d', 'GL')]",0.65,0.4392523364485981,0.5789473684210527
GLW,0.0003035489095157071,0.00856901283717332,"EnhancedDirectionPredictionModel(
  (lstm): LSTM(8, 64, num_layers=3, batch_first=True, dropout=0.2)
  (dropout): Dropout(p=0.2, inplace=False)
  (attention): Linear(in_features=64, out_features=1, bias=True)
  (fc1): Linear(in_features=64, out_features=32, bias=True)
  (fc2): Linear(in_features=32, out_features=2, bias=True)
  (leaky_relu): LeakyReLU(negative_slope=0.01)
  (softmax): Softmax(dim=1)
)","[('avg_volume_5d', 'GLW'), ('delta_range', 'GLW'), ('delta_volume', 'GLW'), ('delta_intraday', 'GLW'), ('avg_volume_60d', 'GLW'), ('price_location_5d', 'GLW'), ('return', 'GLW'), ('avg_return_60d', 'GLW')]",0.65,0.5046728971962616,0.5641025641025641
GM,-0.0011630512445629422,0.008962585994971595,"EnhancedDirectionPredictionModel(
  (lstm): LSTM(8, 64, num_layers=3, batch_first=True, dropout=0.2)
  (dropout): Dropout(p=0.2, inplace=False)
  (attention): Linear(in_features=64, out_features=1, bias=True)
  (fc1): Linear(in_features=64, out_features=32, bias=True)
  (fc2): Linear(in_features=32, out_features=2, bias=True)
  (leaky_relu): LeakyReLU(negative_slope=0.01)
  (softmax): Softmax(dim=1)
)","[('avg_std_5d', 'GM'), ('avg_volume_60d', 'GM'), ('avg_volume_20d', 'GM'), ('avg_return_5d', 'GM'), ('avg_range_60d', 'GM'), ('price_to_ma_60d', 'GM'), ('delta_range', 'GM'), ('price_location_20d', 'GM')]",0.65,0.48598130841121495,0.52
GNRC,-0.0003211336374527634,0.00816127289365269,"EnhancedDirectionPredictionModel(
  (lstm): LSTM(8, 64, num_layers=3, batch_first=True, dropout=0.2)
  (dropout): Dropout(p=0.2, inplace=False)
  (attention): Linear(in_features=64, out_features=1, bias=True)
  (fc1): Linear(in_features=64, out_features=32, bias=True)
  (fc2): Linear(in_features=32, out_features=2, bias=True)
  (leaky_relu): LeakyReLU(negative_slope=0.01)
  (softmax): Softmax(dim=1)
)","[('avg_range_20d', 'GNRC'), ('price_to_ma_60d', 'GNRC'), ('price_location_60d', 'GNRC'), ('delta_range', 'GNRC'), ('avg_volume_60d', 'GNRC'), ('avg_range_60d', 'GNRC'), ('avg_std_20d', 'GNRC'), ('avg_range_5d', 'GNRC')]",0.65,0.5887850467289719,0.5714285714285714
GOOG,-0.0007311676001114236,0.008087006985917515,"EnhancedDirectionPredictionModel(
  (lstm): LSTM(8, 64, num_layers=3, batch_first=True, dropout=0.2)
  (dropout): Dropout(p=0.2, inplace=False)
  (attention): Linear(in_features=64, out_features=1, bias=True)
  (fc1): Linear(in_features=64, out_features=32, bias=True)
  (fc2): Linear(in_features=32, out_features=2, bias=True)
  (leaky_relu): LeakyReLU(negative_slope=0.01)
  (softmax): Softmax(dim=1)
)","[('avg_std_60d', 'GOOG'), ('avg_range_60d', 'GOOG'), ('avg_return_5d', 'GOOG'), ('avg_std_20d', 'GOOG'), ('avg_range_20d', 'GOOG'), ('avg_return_20d', 'GOOG'), ('price_to_ma_20d', 'GOOG'), ('delta_overnight', 'GOOG')]",0.65,0.45794392523364486,0.4
GOOGL,0.0002641245510200536,0.008157680769110621,"EnhancedDirectionPredictionModel(
  (lstm): LSTM(8, 64, num_layers=3, batch_first=True, dropout=0.2)
  (dropout): Dropout(p=0.2, inplace=False)
  (attention): Linear(in_features=64, out_features=1, bias=True)
  (fc1): Linear(in_features=64, out_features=32, bias=True)
  (fc2): Linear(in_features=32, out_features=2, bias=True)
  (leaky_relu): LeakyReLU(negative_slope=0.01)
  (softmax): Softmax(dim=1)
)","[('avg_std_60d', 'GOOGL'), ('avg_return_5d', 'GOOGL'), ('avg_range_60d', 'GOOGL'), ('price_to_ma_20d', 'GOOGL'), ('price_location_5d', 'GOOGL'), ('delta_range', 'GOOGL'), ('price_to_ma_5d', 'GOOGL'), ('avg_std_20d', 'GOOGL')]",0.65,0.4953271028037383,0.48148148148148145
GPC,0.0015633061278238223,0.0071421647410800405,"EnhancedDirectionPredictionModel(
  (lstm): LSTM(8, 64, num_layers=3, batch_first=True, dropout=0.2)
  (dropout): Dropout(p=0.2, inplace=False)
  (attention): Linear(in_features=64, out_features=1, bias=True)
  (fc1): Linear(in_features=64, out_features=32, bias=True)
  (fc2): Linear(in_features=32, out_features=2, bias=True)
  (leaky_relu): LeakyReLU(negative_slope=0.01)
  (softmax): Softmax(dim=1)
)","[('avg_range_5d', 'GPC'), ('avg_range_60d', 'GPC'), ('avg_return_5d', 'GPC'), ('avg_range_20d', 'GPC'), ('price_to_ma_20d', 'GPC'), ('price_location_60d', 'GPC'), ('price_location_5d', 'GPC'), ('avg_std_5d', 'GPC')]",0.65,0.5700934579439252,0.6
GPN,-0.0011044637364476329,0.00714628721478106,"EnhancedDirectionPredictionModel(
  (lstm): LSTM(8, 64, num_layers=3, batch_first=True, dropout=0.2)
  (dropout): Dropout(p=0.2, inplace=False)
  (attention): Linear(in_features=64, out_features=1, bias=True)
  (fc1): Linear(in_features=64, out_features=32, bias=True)
  (fc2): Linear(in_features=32, out_features=2, bias=True)
  (leaky_relu): LeakyReLU(negative_slope=0.01)
  (softmax): Softmax(dim=1)
)","[('avg_range_20d', 'GPN'), ('avg_range_5d', 'GPN'), ('avg_volume_20d', 'GPN'), ('price_to_ma_20d', 'GPN'), ('price_location_60d', 'GPN'), ('price_to_ma_60d', 'GPN'), ('avg_return_5d', 'GPN'), ('avg_std_20d', 'GPN')]",0.65,0.5420560747663551,0.5348837209302325
GRMN,0.0,0.00799897437872816,"EnhancedDirectionPredictionModel(
  (lstm): LSTM(8, 64, num_layers=3, batch_first=True, dropout=0.2)
  (dropout): Dropout(p=0.2, inplace=False)
  (attention): Linear(in_features=64, out_features=1, bias=True)
  (fc1): Linear(in_features=64, out_features=32, bias=True)
  (fc2): Linear(in_features=32, out_features=2, bias=True)
  (leaky_relu): LeakyReLU(negative_slope=0.01)
  (softmax): Softmax(dim=1)
)","[('avg_volume_60d', 'GRMN'), ('avg_return_60d', 'GRMN'), ('price_location_60d', 'GRMN'), ('delta_low', 'GRMN'), ('avg_range_60d', 'GRMN'), ('price_location_5d', 'GRMN'), ('price_to_ma_5d', 'GRMN'), ('delta_range', 'GRMN')]",0.65,0.4672897196261682,0.0
GS,-0.00012410267591964763,0.008928851751215734,"EnhancedDirectionPredictionModel(
  (lstm): LSTM(8, 64, num_layers=3, batch_first=True, dropout=0.2)
  (dropout): Dropout(p=0.2, inplace=False)
  (attention): Linear(in_features=64, out_features=1, bias=True)
  (fc1): Linear(in_features=64, out_features=32, bias=True)
  (fc2): Linear(in_features=32, out_features=2, bias=True)
  (leaky_relu): LeakyReLU(negative_slope=0.01)
  (softmax): Softmax(dim=1)
)","[('avg_std_20d', 'GS'), ('delta_open', 'GS'), ('delta_low', 'GS'), ('avg_volume_20d', 'GS'), ('avg_range_20d', 'GS'), ('price_location_20d', 'GS'), ('delta_overnight', 'GS'), ('price_to_ma_20d', 'GS')]",0.65,0.4205607476635514,0.4666666666666667
GWW,9.13371657706965e-05,0.005275243353501817,"EnhancedDirectionPredictionModel(
  (lstm): LSTM(8, 64, num_layers=3, batch_first=True, dropout=0.2)
  (dropout): Dropout(p=0.2, inplace=False)
  (attention): Linear(in_features=64, out_features=1, bias=True)
  (fc1): Linear(in_features=64, out_features=32, bias=True)
  (fc2): Linear(in_features=32, out_features=2, bias=True)
  (leaky_relu): LeakyReLU(negative_slope=0.01)
  (softmax): Softmax(dim=1)
)","[('avg_std_20d', 'GWW'), ('delta_overnight', 'GWW'), ('avg_range_20d', 'GWW'), ('delta_range', 'GWW'), ('avg_volume_60d', 'GWW'), ('avg_return_60d', 'GWW'), ('delta_low', 'GWW'), ('avg_range_60d', 'GWW')]",0.65,0.4672897196261682,0.3333333333333333
HAL,0.0003206239769706084,0.008715154727247413,"EnhancedDirectionPredictionModel(
  (lstm): LSTM(8, 64, num_layers=3, batch_first=True, dropout=0.2)
  (dropout): Dropout(p=0.2, inplace=False)
  (attention): Linear(in_features=64, out_features=1, bias=True)
  (fc1): Linear(in_features=64, out_features=32, bias=True)
  (fc2): Linear(in_features=32, out_features=2, bias=True)
  (leaky_relu): LeakyReLU(negative_slope=0.01)
  (softmax): Softmax(dim=1)
)","[('avg_volume_20d', 'HAL'), ('price_to_ma_60d', 'HAL'), ('avg_std_5d', 'HAL'), ('avg_return_20d', 'HAL'), ('price_to_ma_20d', 'HAL'), ('avg_range_5d', 'HAL'), ('price_location_20d', 'HAL'), ('delta_range', 'HAL')]",0.65,0.5046728971962616,0.4827586206896552
HAS,0.0006809066885672513,0.009464325499392296,"EnhancedDirectionPredictionModel(
  (lstm): LSTM(8, 64, num_layers=3, batch_first=True, dropout=0.2)
  (dropout): Dropout(p=0.2, inplace=False)
  (attention): Linear(in_features=64, out_features=1, bias=True)
  (fc1): Linear(in_features=64, out_features=32, bias=True)
  (fc2): Linear(in_features=32, out_features=2, bias=True)
  (leaky_relu): LeakyReLU(negative_slope=0.01)
  (softmax): Softmax(dim=1)
)","[('avg_return_5d', 'HAS'), ('price_location_20d', 'HAS'), ('avg_range_20d', 'HAS'), ('price_to_ma_20d', 'HAS'), ('delta_open', 'HAS'), ('avg_range_60d', 'HAS'), ('price_to_ma_5d', 'HAS'), ('price_location_5d', 'HAS')]",0.65,0.5233644859813084,0.5555555555555556
HBAN,0.0005122585452436105,0.007367669305963691,"EnhancedDirectionPredictionModel(
  (lstm): LSTM(8, 64, num_layers=3, batch_first=True, dropout=0.2)
  (dropout): Dropout(p=0.2, inplace=False)
  (attention): Linear(in_features=64, out_features=1, bias=True)
  (fc1): Linear(in_features=64, out_features=32, bias=True)
  (fc2): Linear(in_features=32, out_features=2, bias=True)
  (leaky_relu): LeakyReLU(negative_slope=0.01)
  (softmax): Softmax(dim=1)
)","[('avg_std_20d', 'HBAN'), ('avg_range_20d', 'HBAN'), ('price_to_ma_20d', 'HBAN'), ('avg_volume_5d', 'HBAN'), ('avg_return_5d', 'HBAN'), ('avg_return_20d', 'HBAN'), ('price_to_ma_60d', 'HBAN'), ('price_location_20d', 'HBAN')]",0.65,0.5700934579439252,0.5625
HCA,0.002219434062058439,0.008751582579336174,"EnhancedDirectionPredictionModel(
  (lstm): LSTM(8, 64, num_layers=3, batch_first=True, dropout=0.2)
  (dropout): Dropout(p=0.2, inplace=False)
  (attention): Linear(in_features=64, out_features=1, bias=True)
  (fc1): Linear(in_features=64, out_features=32, bias=True)
  (fc2): Linear(in_features=32, out_features=2, bias=True)
  (leaky_relu): LeakyReLU(negative_slope=0.01)
  (softmax): Softmax(dim=1)
)","[('delta_intraday', 'HCA'), ('avg_return_20d', 'HCA'), ('price_location_20d', 'HCA'), ('avg_volume_20d', 'HCA'), ('price_to_ma_5d', 'HCA'), ('price_to_ma_60d', 'HCA'), ('price_location_5d', 'HCA'), ('avg_volume_60d', 'HCA')]",0.65,0.5327102803738317,0.696969696969697
HD,0.00044251550923428195,0.005729985928656917,"EnhancedDirectionPredictionModel(
  (lstm): LSTM(8, 64, num_layers=3, batch_first=True, dropout=0.2)
  (dropout): Dropout(p=0.2, inplace=False)
  (attention): Linear(in_features=64, out_features=1, bias=True)
  (fc1): Linear(in_features=64, out_features=32, bias=True)
  (fc2): Linear(in_features=32, out_features=2, bias=True)
…
)","[('delta_open', 'TAP'), ('avg_std_5d', 'TAP'), ('avg_range_5d', 'TAP'), ('avg_range_60d', 'TAP'), ('avg_volume_20d', 'TAP'), ('avg_range_20d', 'TAP'), ('delta_low', 'TAP'), ('delta_overnight', 'TAP')]",0.65,0.48598130841121495,0.3333333333333333
TDG,0.0016376879985364715,0.007331505510491397,"EnhancedDirectionPredictionModel(
  (lstm): LSTM(8, 64, num_layers=3, batch_first=True, dropout=0.2)
  (dropout): Dropout(p=0.2, inplace=False)
  (attention): Linear(in_features=64, out_features=1, bias=True)
  (fc1): Linear(in_features=64, out_features=32, bias=True)
  (fc2): Linear(in_features=32, out_features=2, bias=True)
  (leaky_relu): LeakyReLU(negative_slope=0.01)
  (softmax): Softmax(dim=1)
)","[('delta_range', 'TDG'), ('price_location_60d', 'TDG'), ('avg_return_60d', 'TDG'), ('avg_std_60d', 'TDG'), ('delta_overnight', 'TDG'), ('delta_high', 'TDG'), ('avg_return_5d', 'TDG'), ('price_location_5d', 'TDG')]",0.65,0.5233644859813084,0.55
TDY,0.00010800427952420552,0.0059587548626195905,"EnhancedDirectionPredictionModel(
  (lstm): LSTM(8, 64, num_layers=3, batch_first=True, dropout=0.2)
  (dropout): Dropout(p=0.2, inplace=False)
  (attention): Linear(in_features=64, out_features=1, bias=True)
  (fc1): Linear(in_features=64, out_features=32, bias=True)
  (fc2): Linear(in_features=32, out_features=2, bias=True)
  (leaky_relu): LeakyReLU(negative_slope=0.01)
  (softmax): Softmax(dim=1)
)","[('avg_return_60d', 'TDY'), ('avg_range_5d', 'TDY'), ('price_to_ma_60d', 'TDY'), ('avg_std_20d', 'TDY'), ('price_location_60d', 'TDY'), ('avg_range_20d', 'TDY'), ('avg_volume_5d', 'TDY'), ('avg_volume_20d', 'TDY')]",0.65,0.4953271028037383,0.5882352941176471
TECH,-0.0001459633737575947,0.008559553541173687,"EnhancedDirectionPredictionModel(
  (lstm): LSTM(8, 64, num_layers=3, batch_first=True, dropout=0.2)
  (dropout): Dropout(p=0.2, inplace=False)
  (attention): Linear(in_features=64, out_features=1, bias=True)
  (fc1): Linear(in_features=64, out_features=32, bias=True)
  (fc2): Linear(in_features=32, out_features=2, bias=True)
  (leaky_relu): LeakyReLU(negative_slope=0.01)
  (softmax): Softmax(dim=1)
)","[('avg_volume_60d', 'TECH'), ('delta_open', 'TECH'), ('avg_volume_20d', 'TECH'), ('delta_low', 'TECH'), ('delta_intraday', 'TECH'), ('delta_range', 'TECH'), ('avg_std_60d', 'TECH'), ('return', 'TECH')]",0.65,0.5233644859813084,0.4
TEL,-0.00034960958608185223,0.007739891507753125,"EnhancedDirectionPredictionModel(
  (lstm): LSTM(8, 64, num_layers=3, batch_first=True, dropout=0.2)
  (dropout): Dropout(p=0.2, inplace=False)
  (attention): Linear(in_features=64, out_features=1, bias=True)
  (fc1): Linear(in_features=64, out_features=32, bias=True)
  (fc2): Linear(in_features=32, out_features=2, bias=True)
  (leaky_relu): LeakyReLU(negative_slope=0.01)
  (softmax): Softmax(dim=1)
)","[('price_location_20d', 'TEL'), ('price_location_60d', 'TEL'), ('price_to_ma_60d', 'TEL'), ('avg_return_60d', 'TEL'), ('price_location_5d', 'TEL'), ('avg_return_5d', 'TEL'), ('price_to_ma_20d', 'TEL'), ('avg_std_20d', 'TEL')]",0.65,0.4485981308411215,0.4523809523809524
TER,-0.000634234225151995,0.010159314960744204,"EnhancedDirectionPredictionModel(
  (lstm): LSTM(8, 64, num_layers=3, batch_first=True, dropout=0.2)
  (dropout): Dropout(p=0.2, inplace=False)
  (attention): Linear(in_features=64, out_features=1, bias=True)
  (fc1): Linear(in_features=64, out_features=32, bias=True)
  (fc2): Linear(in_features=32, out_features=2, bias=True)
  (leaky_relu): LeakyReLU(negative_slope=0.01)
  (softmax): Softmax(dim=1)
)","[('price_to_ma_5d', 'TER'), ('avg_range_5d', 'TER'), ('avg_return_5d', 'TER'), ('return', 'TER'), ('delta_low', 'TER'), ('avg_volume_60d', 'TER'), ('price_location_5d', 'TER'), ('delta_overnight', 'TER')]",0.65,0.514018691588785,0.4444444444444444
TFC,0.0010647557491908655,0.007112564132976035,"EnhancedDirectionPredictionModel(
  (lstm): LSTM(8, 64, num_layers=3, batch_first=True, dropout=0.2)
  (dropout): Dropout(p=0.2, inplace=False)
  (attention): Linear(in_features=64, out_features=1, bias=True)
  (fc1): Linear(in_features=64, out_features=32, bias=True)
  (fc2): Linear(in_features=32, out_features=2, bias=True)
  (leaky_relu): LeakyReLU(negative_slope=0.01)
  (softmax): Softmax(dim=1)
)","[('avg_std_20d', 'TFC'), ('delta_overnight', 'TFC'), ('avg_range_20d', 'TFC'), ('delta_intraday', 'TFC'), ('price_to_ma_5d', 'TFC'), ('price_location_5d', 'TFC'), ('delta_volume', 'TFC'), ('delta_range', 'TFC')]",0.65,0.616822429906542,0.6052631578947368
TGT,1.1137616642645154e-05,0.007144491813380934,"EnhancedDirectionPredictionModel(
  (lstm): LSTM(8, 64, num_layers=3, batch_first=True, dropout=0.2)
  (dropout): Dropout(p=0.2, inplace=False)
  (attention): Linear(in_features=64, out_features=1, bias=True)
  (fc1): Linear(in_features=64, out_features=32, bias=True)
  (fc2): Linear(in_features=32, out_features=2, bias=True)
  (leaky_relu): LeakyReLU(negative_slope=0.01)
  (softmax): Softmax(dim=1)
)","[('delta_low', 'TGT'), ('delta_open', 'TGT'), ('delta_high', 'TGT'), ('price_location_20d', 'TGT'), ('price_to_ma_20d', 'TGT'), ('avg_return_5d', 'TGT'), ('avg_std_20d', 'TGT'), ('delta_volume', 'TGT')]",0.65,0.5046728971962616,0.45714285714285713
TJX,0.0,0.0052734605498220965,"EnhancedDirectionPredictionModel(
  (lstm): LSTM(8, 64, num_layers=3, batch_first=True, dropout=0.2)
  (dropout): Dropout(p=0.2, inplace=False)
  (attention): Linear(in_features=64, out_features=1, bias=True)
  (fc1): Linear(in_features=64, out_features=32, bias=True)
  (fc2): Linear(in_features=32, out_features=2, bias=True)
  (leaky_relu): LeakyReLU(negative_slope=0.01)
  (softmax): Softmax(dim=1)
)","[('avg_volume_20d', 'TJX'), ('avg_return_60d', 'TJX'), ('price_to_ma_60d', 'TJX'), ('price_location_60d', 'TJX'), ('delta_range', 'TJX'), ('avg_range_5d', 'TJX'), ('price_to_ma_20d', 'TJX'), ('avg_return_5d', 'TJX')]",0.65,0.4953271028037383,0.0
TKO,0.00032604453506854334,0.008951262905420183,"EnhancedDirectionPredictionModel(
  (lstm): LSTM(8, 64, num_layers=3, batch_first=True, dropout=0.2)
  (dropout): Dropout(p=0.2, inplace=False)
  (attention): Linear(in_features=64, out_features=1, bias=True)
  (fc1): Linear(in_features=64, out_features=32, bias=True)
  (fc2): Linear(in_features=32, out_features=2, bias=True)
  (leaky_relu): LeakyReLU(negative_slope=0.01)
  (softmax): Softmax(dim=1)
)","[('delta_high', 'TKO'), ('delta_open', 'TKO'), ('price_location_5d', 'TKO'), ('price_to_ma_5d', 'TKO'), ('price_location_20d', 'TKO'), ('avg_volume_20d', 'TKO'), ('avg_return_5d', 'TKO'), ('price_to_ma_20d', 'TKO')]",0.65,0.514018691588785,0.5666666666666667
TMO,-3.90286871985936e-06,0.006202619175195636,"EnhancedDirectionPredictionModel(
  (lstm): LSTM(8, 64, num_layers=3, batch_first=True, dropout=0.2)
  (dropout): Dropout(p=0.2, inplace=False)
  (attention): Linear(in_features=64, out_features=1, bias=True)
  (fc1): Linear(in_features=64, out_features=32, bias=True)
  (fc2): Linear(in_features=32, out_features=2, bias=True)
  (leaky_relu): LeakyReLU(negative_slope=0.01)
  (softmax): Softmax(dim=1)
)","[('avg_volume_60d', 'TMO'), ('avg_volume_20d', 'TMO'), ('avg_volume_5d', 'TMO'), ('avg_return_20d', 'TMO'), ('price_location_20d', 'TMO'), ('price_location_60d', 'TMO'), ('price_to_ma_60d', 'TMO'), ('price_to_ma_20d', 'TMO')]",0.65,0.5700934579439252,0.4444444444444444
TMUS,0.0,0.007298063958462839,"EnhancedDirectionPredictionModel(
  (lstm): LSTM(8, 64, num_layers=3, batch_first=True, dropout=0.2)
  (dropout): Dropout(p=0.2, inplace=False)
  (attention): Linear(in_features=64, out_features=1, bias=True)
  (fc1): Linear(in_features=64, out_features=32, bias=True)
  (fc2): Linear(in_features=32, out_features=2, bias=True)
  (leaky_relu): LeakyReLU(negative_slope=0.01)
  (softmax): Softmax(dim=1)
)","[('avg_return_60d', 'TMUS'), ('price_to_ma_60d', 'TMUS'), ('price_location_60d', 'TMUS'), ('delta_intraday', 'TMUS'), ('avg_std_5d', 'TMUS'), ('return', 'TMUS'), ('delta_high', 'TMUS'), ('delta_volume', 'TMUS')]",0.65,0.4392523364485981,0.0
TPL,0.000942406435290792,0.013836425050608727,"EnhancedDirectionPredictionModel(
  (lstm): LSTM(8, 64, num_layers=3, batch_first=True, dropout=0.2)
  (dropout): Dropout(p=0.2, inplace=False)
  (attention): Linear(in_features=64, out_features=1, bias=True)
  (fc1): Linear(in_features=64, out_features=32, bias=True)
  (fc2): Linear(in_features=32, out_features=2, bias=True)
  (leaky_relu): LeakyReLU(negative_slope=0.01)
  (softmax): Softmax(dim=1)
)","[('price_location_60d', 'TPL'), ('delta_volume', 'TPL'), ('avg_return_60d', 'TPL'), ('avg_volume_5d', 'TPL'), ('avg_range_20d', 'TPL'), ('price_to_ma_60d', 'TPL'), ('delta_open', 'TPL'), ('avg_std_20d', 'TPL')]",0.65,0.5233644859813084,0.5844155844155844
TPR,-7.392018920177721e-05,0.011060637321694265,"EnhancedDirectionPredictionModel(
  (lstm): LSTM(8, 64, num_layers=3, batch_first=True, dropout=0.2)
  (dropout): Dropout(p=0.2, inplace=False)
  (attention): Linear(in_features=64, out_features=1, bias=True)
  (fc1): Linear(in_features=64, out_features=32, bias=True)
  (fc2): Linear(in_features=32, out_features=2, bias=True)
  (leaky_relu): LeakyReLU(negative_slope=0.01)
  (softmax): Softmax(dim=1)
)","[('avg_range_20d', 'TPR'), ('avg_range_60d', 'TPR'), ('avg_range_5d', 'TPR'), ('avg_std_60d', 'TPR'), ('avg_return_60d', 'TPR'), ('delta_high', 'TPR'), ('avg_volume_60d', 'TPR'), ('delta_open', 'TPR')]",0.65,0.4485981308411215,0.5072463768115942
TRGP,0.0006709571997569701,0.009726738592198043,"EnhancedDirectionPredictionModel(
  (lstm): LSTM(8, 64, num_layers=3, batch_first=True, dropout=0.2)
  (dropout): Dropout(p=0.2, inplace=False)
  (attention): Linear(in_features=64, out_features=1, bias=True)
  (fc1): Linear(in_features=64, out_features=32, bias=True)
  (fc2): Linear(in_features=32, out_features=2, bias=True)
  (leaky_relu): LeakyReLU(negative_slope=0.01)
  (softmax): Softmax(dim=1)
)","[('delta_intraday', 'TRGP'), ('price_location_5d', 'TRGP'), ('delta_overnight', 'TRGP'), ('price_to_ma_5d', 'TRGP'), ('avg_std_60d', 'TRGP'), ('avg_volume_60d', 'TRGP'), ('avg_range_5d', 'TRGP'), ('avg_return_5d', 'TRGP')]",0.65,0.5327102803738317,0.55
TRMB,0.0003258523229022302,0.007908521356279102,"EnhancedDirectionPredictionModel(
  (lstm): LSTM(8, 64, num_layers=3, batch_first=True, dropout=0.2)
  (dropout): Dropout(p=0.2, inplace=False)
  (attention): Linear(in_features=64, out_features=1, bias=True)
  (fc1): Linear(in_features=64, out_features=32, bias=True)
  (fc2): Linear(in_features=32, out_features=2, bias=True)
  (leaky_relu): LeakyReLU(negative_slope=0.01)
  (softmax): Softmax(dim=1)
)","[('avg_volume_60d', 'TRMB'), ('avg_std_5d', 'TRMB'), ('delta_range', 'TRMB'), ('avg_return_60d', 'TRMB'), ('avg_volume_20d', 'TRMB'), ('avg_return_20d', 'TRMB'), ('delta_high', 'TRMB'), ('price_location_60d', 'TRMB')]",0.65,0.4672897196261682,0.5135135135135135
TROW,-0.0018965922049083304,0.006612345298537815,"EnhancedDirectionPredictionModel(
  (lstm): LSTM(8, 64, num_layers=3, batch_first=True, dropout=0.2)
  (dropout): Dropout(p=0.2, inplace=False)
  (attention): Linear(in_features=64, out_features=1, bias=True)
  (fc1): Linear(in_features=64, out_features=32, bias=True)
  (fc2): Linear(in_features=32, out_features=2, bias=True)
  (leaky_relu): LeakyReLU(negative_slope=0.01)
  (softmax): Softmax(dim=1)
)","[('avg_return_5d', 'TROW'), ('price_to_ma_5d', 'TROW'), ('price_to_ma_20d', 'TROW'), ('avg_std_60d', 'TROW'), ('avg_std_5d', 'TROW'), ('delta_high', 'TROW'), ('price_location_5d', 'TROW'), ('avg_range_60d', 'TROW')]",0.65,0.48598130841121495,0.4583333333333333
TRV,0.0008566214745756128,0.006246213695519163,"EnhancedDirectionPredictionModel(
  (lstm): LSTM(8, 64, num_layers=3, batch_first=True, dropout=0.2)
  (dropout): Dropout(p=0.2, inplace=False)
  (attention): Linear(in_features=64, out_features=1, bias=True)
  (fc1): Linear(in_features=64, out_features=32, bias=True)
  (fc2): Linear(in_features=32, out_features=2, bias=True)
  (leaky_relu): LeakyReLU(negative_slope=0.01)
  (softmax): Softmax(dim=1)
)","[('price_to_ma_5d', 'TRV'), ('price_to_ma_20d', 'TRV'), ('avg_return_20d', 'TRV'), ('delta_intraday', 'TRV'), ('price_location_5d', 'TRV'), ('price_location_20d', 'TRV'), ('avg_return_5d', 'TRV'), ('return', 'TRV')]",0.65,0.4672897196261682,0.4918032786885246
TSCO,0.00018788386165659478,0.007224005905454175,"EnhancedDirectionPredictionModel(
  (lstm): LSTM(8, 64, num_layers=3, batch_first=True, dropout=0.2)
  (dropout): Dropout(p=0.2, inplace=False)
  (attention): Linear(in_features=64, out_features=1, bias=True)
  (fc1): Linear(in_features=64, out_features=32, bias=True)
  (fc2): Linear(in_features=32, out_features=2, bias=True)
  (leaky_relu): LeakyReLU(negative_slope=0.01)
  (softmax): Softmax(dim=1)
)","[('avg_return_60d', 'TSCO'), ('price_to_ma_20d', 'TSCO'), ('delta_open', 'TSCO'), ('delta_range', 'TSCO'), ('price_to_ma_60d', 'TSCO'), ('delta_high', 'TSCO'), ('avg_std_5d', 'TSCO'), ('price_location_20d', 'TSCO')]",0.65,0.5327102803738317,0.5348837209302325
TSLA,-0.00014128622771442372,0.017575748070209264,"EnhancedDirectionPredictionModel(
  (lstm): LSTM(8, 64, num_layers=3, batch_first=True, dropout=0.2)
  (dropout): Dropout(p=0.2, inplace=False)
  (attention): Linear(in_features=64, out_features=1, bias=True)
  (fc1): Linear(in_features=64, out_features=32, bias=True)
  (fc2): Linear(in_features=32, out_features=2, bias=True)
  (leaky_relu): LeakyReLU(negative_slope=0.01)
  (softmax): Softmax(dim=1)
)","[('price_location_20d', 'TSLA'), ('avg_volume_5d', 'TSLA'), ('price_to_ma_20d', 'TSLA'), ('avg_volume_20d', 'TSLA'), ('delta_range', 'TSLA'), ('avg_return_20d', 'TSLA'), ('avg_std_5d', 'TSLA'), ('price_location_60d', 'TSLA')]",0.65,0.5420560747663551,0.49019607843137253
TSN,-0.00024395700336629815,0.005613587106392049,"EnhancedDirectionPredictionModel(
  (lstm): LSTM(8, 64, num_layers=3, batch_first=True, dropout=0.2)
  (dropout): Dropout(p=0.2, inplace=False)
  (attention): Linear(in_features=64, out_features=1, bias=True)
  (fc1): Linear(in_features=64, out_features=32, bias=True)
  (fc2): Linear(in_features=32, out_features=2, bias=True)
  (leaky_relu): LeakyReLU(negative_slope=0.01)
  (softmax): Softmax(dim=1)
)","[('delta_range', 'TSN'), ('avg_range_20d', 'TSN'), ('avg_range_60d', 'TSN'), ('avg_range_5d', 'TSN'), ('delta_low', 'TSN'), ('avg_std_5d', 'TSN'), ('avg_return_20d', 'TSN'), ('delta_open', 'TSN')]",0.65,0.4953271028037383,0.48
TT,0.0005618406754438051,0.007912290494945434,"EnhancedDirectionPredictionModel(
  (lstm): LSTM(8, 64, num_layers=3, batch_first=True, dropout=0.2)
  (dropout): Dropout(p=0.2, inplace=False)
  (attention): Linear(in_features=64, out_features=1, bias=True)
  (fc1): Linear(in_features=64, out_features=32, bias=True)
  (fc2): Linear(in_features=32, out_features=2, bias=True)
  (leaky_relu): LeakyReLU(negative_slope=0.01)
  (softmax): Softmax(dim=1)
)","[('delta_overnight', 'TT'), ('avg_volume_5d', 'TT'), ('delta_intraday', 'TT'), ('avg_std_60d', 'TT'), ('avg_volume_20d', 'TT'), ('delta_low', 'TT'), ('price_location_60d', 'TT'), ('delta_open', 'TT')]",0.65,0.4485981308411215,0.4666666666666667
TTWO,0.0007730400669420682,0.009005560718387562,"EnhancedDirectionPredictionModel(
  (lstm): LSTM(8, 64, num_layers=3, batch_first=True, dropout=0.2)
  (dropout): Dropout(p=0.2, inplace=False)
  (attention): Linear(in_features=64, out_features=1, bias=True)
  (fc1): Linear(in_features=64, out_features=32, bias=True)
  (fc2): Linear(in_features=32, out_features=2, bias=True)
  (leaky_relu): LeakyReLU(negative_slope=0.01)
  (softmax): Softmax(dim=1)
)","[('avg_range_60d', 'TTWO'), ('avg_std_60d', 'TTWO'), ('avg_return_5d', 'TTWO'), ('avg_std_20d', 'TTWO'), ('delta_range', 'TTWO'), ('delta_volume', 'TTWO'), ('delta_low', 'TTWO'), ('avg_volume_5d', 'TTWO')]",0.65,0.45794392523364486,0.5517241379310345
TXN,0.0020403556097820298,0.009841126459032403,"EnhancedDirectionPredictionModel(
  (lstm): LSTM(8, 64, num_layers=3, batch_first=True, dropout=0.2)
  (dropout): Dropout(p=0.2, inplace=False)
  (attention): Linear(in_features=64, out_features=1, bias=True)
  (fc1): Linear(in_features=64, out_features=32, bias=True)
  (fc2): Linear(in_features=32, out_features=2, bias=True)
  (leaky_relu): LeakyReLU(negative_slope=0.01)
  (softmax): Softmax(dim=1)
)","[('price_location_5d', 'TXN'), ('price_to_ma_5d', 'TXN'), ('price_to_ma_60d', 'TXN'), ('price_location_60d', 'TXN'), ('price_location_20d', 'TXN'), ('delta_intraday', 'TXN'), ('avg_return_5d', 'TXN'), ('return', 'TXN')]",0.65,0.616822429906542,0.6296296296296297
TXT,0.0008499349474485016,0.006487508643179545,"EnhancedDirectionPredictionModel(
  (lstm): LSTM(8, 64, num_layers=3, batch_first=True, dropout=0.2)
  (dropout): Dropout(p=0.2, inplace=False)
  (attention): Linear(in_features=64, out_features=1, bias=True)
  (fc1): Linear(in_features=64, out_features=32, bias=True)
  (fc2): Linear(in_features=32, out_features=2, bias=True)
  (leaky_relu): LeakyReLU(negative_slope=0.01)
  (softmax): Softmax(dim=1)
)","[('price_to_ma_20d', 'TXT'), ('price_location_20d', 'TXT'), ('price_to_ma_5d', 'TXT'), ('delta_high', 'TXT'), ('avg_return_20d', 'TXT'), ('avg_return_5d', 'TXT'), ('return', 'TXT'), ('delta_open', 'TXT')]",0.65,0.5046728971962616,0.5121951219512195
TYL,0.0,0.006457533833375489,"EnhancedDirectionPredictionModel(
  (lstm): LSTM(8, 64, num_layers=3, batch_first=True, dropout=0.2)
  (dropout): Dropout(p=0.2, inplace=False)
  (attention): Linear(in_features=64, out_features=1, bias=True)
  (fc1): Linear(in_features=64, out_features=32, bias=True)
  (fc2): Linear(in_features=32, out_features=2, bias=True)
  (leaky_relu): LeakyReLU(negative_slope=0.01)
  (softmax): Softmax(dim=1)
)","[('price_to_ma_5d', 'TYL'), ('price_location_5d', 'TYL'), ('avg_return_5d', 'TYL'), ('delta_open', 'TYL'), ('avg_std_60d', 'TYL'), ('delta_low', 'TYL'), ('delta_volume', 'TYL'), ('avg_std_5d', 'TYL')]",0.65,0.4672897196261682,0.0
UAL,0.0005781326246646364,0.014320409700218464,"EnhancedDirectionPredictionModel(
  (lstm): LSTM(8, 64, num_layers=3, batch_first=True, dropout=0.2)
  (dropout): Dropout(p=0.2, inplace=False)
  (attention): Linear(in_features=64, out_features=1, bias=True)
  (fc1): Linear(in_features=64, out_features=32, bias=True)
  (fc2): Linear(in_features=32, out_features=2, bias=True)
  (leaky_relu): LeakyReLU(negative_slope=0.01)
  (softmax): Softmax(dim=1)
)","[('avg_std_20d', 'UAL'), ('avg_volume_60d', 'UAL'), ('avg_range_5d', 'UAL'), ('avg_volume_5d', 'UAL'), ('avg_std_5d', 'UAL'), ('avg_range_20d', 'UAL'), ('avg_range_60d', 'UAL'), ('avg_std_60d', 'UAL')]",0.65,0.5327102803738317,0.75
UBER,0.0021405168550104052,0.012296775738637671,"EnhancedDirectionPredictionModel(
  (lstm): LSTM(8, 64, num_layers=3, batch_first=True, dropout=0.2)
  (dropout): Dropout(p=0.2, inplace=False)
  (attention): Linear(in_features=64, out_features=1, bias=True)
  (fc1): Linear(in_features=64, out_features=32, bias=True)
  (fc2): Linear(in_features=32, out_features=2, bias=True)
  (leaky_relu): LeakyReLU(negative_slope=0.01)
  (softmax): Softmax(dim=1)
)","[('delta_range', 'UBER'), ('price_to_ma_60d', 'UBER'), ('delta_high', 'UBER'), ('avg_return_20d', 'UBER'), ('price_location_60d', 'UBER'), ('price_to_ma_20d', 'UBER'), ('avg_return_60d', 'UBER'), ('price_location_20d', 'UBER')]",0.65,0.4672897196261682,0.5714285714285714
UDR,0.001452750152775393,0.006055914847352476,"EnhancedDirectionPredictionModel(
  (lstm): LSTM(8, 64, num_layers=3, batch_first=True, dropout=0.2)
  (dropout): Dropout(p=0.2, inplace=False)
  (attention): Linear(in_features=64, out_features=1, bias=True)
  (fc1): Linear(in_features=64, out_features=32, bias=True)
  (fc2): Linear(in_features=32, out_features=2, bias=True)
  (leaky_relu): LeakyReLU(negative_slope=0.01)
  (softmax): Softmax(dim=1)
)","[('avg_return_5d', 'UDR'), ('price_to_ma_5d', 'UDR'), ('delta_overnight', 'UDR'), ('price_to_ma_20d', 'UDR'), ('price_location_5d', 'UDR'), ('delta_intraday', 'UDR'), ('avg_std_20d', 'UDR'), ('delta_range', 'UDR')]",0.65,0.5700934579439252,0.5319148936170213
UHS,0.0017325270307506169,0.00915347372173473,"EnhancedDirectionPredictionModel(
  (lstm): LSTM(8, 64, num_layers=3, batch_first=True, dropout=0.2)
  (dropout): Dropout(p=0.2, inplace=False)
  (attention): Linear(in_features=64, out_features=1, bias=True)
  (fc1): Linear(in_features=64, out_features=32, bias=True)
  (fc2): Linear(in_features=32, out_features=2, bias=True)
  (leaky_relu): LeakyReLU(negative_slope=0.01)
  (softmax): Softmax(dim=1)
)","[('avg_volume_20d', 'UHS'), ('delta_range', 'UHS'), ('delta_volume', 'UHS'), ('avg_std_20d', 'UHS'), ('avg_return_20d', 'UHS'), ('delta_low', 'UHS'), ('delta_open', 'UHS'), ('avg_range_20d', 'UHS')]",0.65,0.5420560747663551,0.6363636363636364
ULTA,0.0018443895713682148,0.008816105668023622,"EnhancedDirectionPredictionModel(
  (lstm): LSTM(8, 64, num_layers=3, batch_first=True, dropout=0.2)
  (dropout): Dropout(p=0.2, inplace=False)
  (attention): Linear(in_features=64, out_features=1, bias=True)
  (fc1): Linear(in_features=64, out_features=32, bias=True)
  (fc2): Linear(in_features=32, out_features=2, bias=True)
  (leaky_relu): LeakyReLU(negative_slope=0.01)
  (softmax): Softmax(dim=1)
)","[('avg_volume_60d', 'ULTA'), ('avg_return_60d', 'ULTA'), ('price_to_ma_5d', 'ULTA'), ('delta_range', 'ULTA'), ('avg_volume_5d', 'ULTA'), ('avg_return_5d', 'ULTA'), ('delta_intraday', 'ULTA'), ('delta_volume', 'ULTA')]",0.65,0.48598130841121495,0.46153846153846156
UNH,-0.004231384306550917,0.008129189680699242,"EnhancedDirectionPredictionModel(
  (lstm): LSTM(8, 64, num_layers=3, batch_first=True, dropout=0.2)
  (dropout): Dropout(p=0.2, inplace=False)
  (attention): Linear(in_features=64, out_features=1, bias=True)
  (fc1): Linear(in_features=64, out_features=32, bias=True)
  (fc2): Linear(in_features=32, out_features=2, bias=True)
  (leaky_relu): LeakyReLU(negative_slope=0.01)
  (softmax): Softmax(dim=1)
)","[('delta_overnight', 'UNH'), ('avg_std_60d', 'UNH'), ('delta_low', 'UNH'), ('delta_high', 'UNH'), ('return', 'UNH'), ('avg_volume_60d', 'UNH'), ('price_location_5d', 'UNH'), ('delta_volume', 'UNH')]",0.65,0.4205607476635514,0.375
UNP,0.000681577793835591,0.0057609679158680946,"EnhancedDirectionPredictionModel(
  (lstm): LSTM(8, 64, num_layers=3, batch_first=True, dropout=0.2)
  (dropout): Dropout(p=0.2, inplace=False)
  (attention): Linear(in_features=64, out_features=1, bias=True)
  (fc1): Linear(in_features=64, out_features=32, bias=True)
  (fc2): Linear(in_features=32, out_features=2, bias=True)
  (leaky_relu): LeakyReLU(negative_slope=0.01)
  (softmax): Softmax(dim=1)
)","[('avg_return_5d', 'UNP'), ('delta_overnight', 'UNP'), ('avg_volume_20d', 'UNP'), ('price_to_ma_20d', 'UNP'), ('delta_range', 'UNP'), ('price_location_5d', 'UNP'), ('price_location_20d', 'UNP'), ('delta_low', 'UNP')]",0.65,0.4766355140186916,0.4791666666666667
UPS,0.0,0.006259849438164244,"EnhancedDirectionPredictionModel(
  (lstm): LSTM(8, 64, num_layers=3, batch_first=True, dropout=0.2)
  (dropout): Dropout(p=0.2, inplace=False)
  (attention): Linear(in_features=64, out_features=1, bias=True)
  (fc1): Linear(in_features=64, out_features=32, bias=True)
  (fc2): Linear(in_features=32, out_features=2, bias=True)
  (leaky_relu): LeakyReLU(negative_slope=0.01)
  (softmax): Softmax(dim=1)
)","[('avg_volume_5d', 'UPS'), ('avg_volume_20d', 'UPS'), ('delta_overnight', 'UPS'), ('avg_return_60d', 'UPS'), ('avg_range_5d', 'UPS'), ('avg_range_20d', 'UPS'), ('avg_volume_60d', 'UPS'), ('delta_high', 'UPS')]",0.65,0.514018691588785,0.0
URI,0.0016650836050591472,0.009761183491745864,"EnhancedDirectionPredictionModel(
  (lstm): LSTM(8, 64, num_layers=3, batch_first=True, dropout=0.2)
  (dropout): Dropout(p=0.2, inplace=False)
  (attention): Linear(in_features=64, out_features=1, bias=True)
  (fc1): Linear(in_features=64, out_features=32, bias=True)
  (fc2): Linear(in_features=32, out_features=2, bias=True)
  (leaky_relu): LeakyReLU(negative_slope=0.01)
  (softmax): Softmax(dim=1)
)","[('avg_range_20d', 'URI'), ('avg_range_60d', 'URI'), ('avg_range_5d', 'URI'), ('avg_std_20d', 'URI'), ('avg_std_60d', 'URI'), ('delta_range', 'URI'), ('avg_return_60d', 'URI'), ('delta_low', 'URI')]",0.65,0.5794392523364486,0.5606060606060606
USB,0.0,0.006721805393541215,"EnhancedDirectionPredictionModel(
  (lstm): LSTM(8, 64, num_layers=3, batch_first=True, dropout=0.2)
  (dropout): Dropout(p=0.2, inplace=False)
  (attention): Linear(in_features=64, out_features=1, bias=True)
  (fc1): Linear(in_features=64, out_features=32, bias=True)
  (fc2): Linear(in_features=32, out_features=2, bias=True)
  (leaky_relu): LeakyReLU(negative_slope=0.01)
  (softmax): Softmax(dim=1)
)","[('delta_intraday', 'USB'), ('avg_return_5d', 'USB'), ('price_to_ma_20d', 'USB'), ('avg_volume_60d', 'USB'), ('delta_volume', 'USB'), ('avg_std_20d', 'USB'), ('return', 'USB'), ('delta_open', 'USB')]",0.65,0.4953271028037383,0.0
V,0.0005796018421165849,0.005981212163562575,"EnhancedDirectionPredictionModel(
  (lstm): LSTM(8, 64, num_layers=3, batch_first=True, dropout=0.2)
  (dropout): Dropout(p=0.2, inplace=False)
  (attention): Linear(in_features=64, out_features=1, bias=True)
  (fc1): Linear(in_features=64, out_features=32, bias=True)
  (fc2): Linear(in_features=32, out_features=2, bias=True)
  (leaky_relu): LeakyReLU(negative_slope=0.01)
  (softmax): Softmax(dim=1)
)","[('delta_overnight', 'V'), ('price_to_ma_60d', 'V'), ('avg_return_60d', 'V'), ('price_to_ma_20d', 'V'), ('avg_volume_20d', 'V'), ('avg_return_20d', 'V'), ('price_location_60d', 'V'), ('avg_range_60d', 'V')]",0.65,0.4953271028037383,0.6333333333333333
VICI,0.0008081632023382301,0.005890293497782562,"EnhancedDirectionPredictionModel(
  (lstm): LSTM(8, 64, num_layers=3, batch_first=True, dropout=0.2)
  (dropout): Dropout(p=0.2, inplace=False)
  (attention): Linear(in_features=64, out_features=1, bias=True)
  (fc1): Linear(in_features=64, out_features=32, bias=True)
  (fc2): Linear(in_features=32, out_features=2, bias=True)
  (leaky_relu): LeakyReLU(negative_slope=0.01)
  (softmax): Softmax(dim=1)
)","[('avg_return_5d', 'VICI'), ('delta_intraday', 'VICI'), ('price_location_60d', 'VICI'), ('price_to_ma_5d', 'VICI'), ('price_to_ma_60d', 'VICI'), ('price_to_ma_20d', 'VICI'), ('return', 'VICI'), ('avg_std_20d', 'VICI')]",0.65,0.5887850467289719,0.6285714285714286
VLO,0.0015282229430470886,0.009947889678555808,"EnhancedDirectionPredictionModel(
  (lstm): LSTM(8, 64, num_layers=3, batch_first=True, dropout=0.2)
  (dropout): Dropout(p=0.2, inplace=False)
  (attention): Linear(in_features=64, out_features=1, bias=True)
  (fc1): Linear(in_features=64, out_features=32, bias=True)
  (fc2): Linear(in_features=32, out_features=2, bias=True)
  (leaky_relu): LeakyReLU(negative_slope=0.01)
  (softmax): Softmax(dim=1)
)","[('delta_range', 'VLO'), ('price_to_ma_60d', 'VLO'), ('avg_return_20d', 'VLO'), ('avg_std_20d', 'VLO'), ('delta_volume', 'VLO'), ('avg_return_60d', 'VLO'), ('avg_std_5d', 'VLO'), ('avg_std_60d', 'VLO')]",0.65,0.45794392523364486,0.5294117647058824
VMC,0.0006459910559772389,0.0068679798897523965,"EnhancedDirectionPredictionModel(
  (lstm): LSTM(8, 64, num_layers=3, batch_first=True, dropout=0.2)
  (dropout): Dropout(p=0.2, inplace=False)
  (attention): Linear(in_features=64, out_features=1, bias=True)
  (fc1): Linear(in_features=64, out_features=32, bias=True)
  (fc2): Linear(in_features=32, out_features=2, bias=True)
  (leaky_relu): LeakyReLU(negative_slope=0.01)
  (softmax): Softmax(dim=1)
)","[('delta_volume', 'VMC'), ('delta_range', 'VMC'), ('avg_return_5d', 'VMC'), ('avg_return_60d', 'VMC'), ('delta_overnight', 'VMC'), ('price_to_ma_60d', 'VMC'), ('delta_low', 'VMC'), ('avg_volume_60d', 'VMC')]",0.65,0.5233644859813084,0.6
VRSK,-1.9840829222747003e-05,0.0058934636211646855,"EnhancedDirectionPredictionModel(
  (lstm): LSTM(8, 64, num_layers=3, batch_first=True, dropout=0.2)
  (dropout): Dropout(p=0.2, inplace=False)
  (attention): Linear(in_features=64, out_features=1, bias=True)
  (fc1): Linear(in_features=64, out_features=32, bias=True)
  (fc2): Linear(in_features=32, out_features=2, bias=True)
  (leaky_relu): LeakyReLU(negative_slope=0.01)
  (softmax): Softmax(dim=1)
)","[('delta_range', 'VRSK'), ('delta_high', 'VRSK'), ('avg_return_60d', 'VRSK'), ('price_location_20d', 'VRSK'), ('avg_range_60d', 'VRSK'), ('avg_std_60d', 'VRSK'), ('delta_low', 'VRSK'), ('price_location_5d', 'VRSK')]",0.65,0.5046728971962616,0.6
VRSN,0.0014496624668844387,0.006920408943491259,"EnhancedDirectionPredictionModel(
  (lstm): LSTM(8, 64, num_layers=3, batch_first=True, dropout=0.2)
  (dropout): Dropout(p=0.2, inplace=False)
  (attention): Linear(in_features=64, out_features=1, bias=True)
  (fc1): Linear(in_features=64, out_features=32, bias=True)
  (fc2): Linear(in_features=32, out_features=2, bias=True)
  (leaky_relu): LeakyReLU(negative_slope=0.01)
  (softmax): Softmax(dim=1)
)","[('avg_range_20d', 'VRSN'), ('delta_intraday', 'VRSN'), ('avg_volume_20d', 'VRSN'), ('return', 'VRSN'), ('avg_std_20d', 'VRSN'), ('price_location_5d', 'VRSN'), ('price_location_20d', 'VRSN'), ('avg_std_60d', 'VRSN')]",0.65,0.411214953271028,0.72
VRTX,-0.00023493775032290762,0.007053882690549783,"EnhancedDirectionPredictionModel(
  (lstm): LSTM(8, 64, num_layers=3, batch_first=True, dropout=0.2)
  (dropout): Dropout(p=0.2, inplace=False)
  (attention): Linear(in_features=64, out_features=1, bias=True)
  (fc1): Linear(in_features=64, out_features=32, bias=True)
  (fc2): Linear(in_features=32, out_features=2, bias=True)
  (leaky_relu): LeakyReLU(negative_slope=0.01)
  (softmax): Softmax(dim=1)
)","[('avg_volume_20d', 'VRTX'), ('avg_std_20d', 'VRTX'), ('delta_range', 'VRTX'), ('delta_low', 'VRTX'), ('avg_range_5d', 'VRTX'), ('avg_range_20d', 'VRTX'), ('price_location_5d', 'VRTX'), ('avg_volume_5d', 'VRTX')]",0.65,0.45794392523364486,0.5416666666666666
VST,-0.000315087744564615,0.01954013997333762,"EnhancedDirectionPredictionModel(
  (lstm): LSTM(8, 64, num_layers=3, batch_first=True, dropout=0.2)
  (dropout): Dropout(p=0.2, inplace=False)
  (attention): Linear(in_features=64, out_features=1, bias=True)
  (fc1): Linear(in_features=64, out_features=32, bias=True)
  (fc2): Linear(in_features=32, out_features=2, bias=True)
  (leaky_relu): LeakyReLU(negative_slope=0.01)
  (softmax): Softmax(dim=1)
)","[('delta_volume', 'VST'), ('delta_intraday', 'VST'), ('return', 'VST'), ('price_location_5d', 'VST'), ('price_to_ma_5d', 'VST'), ('avg_volume_5d', 'VST'), ('avg_return_5d', 'VST'), ('delta_range', 'VST')]",0.65,0.48598130841121495,0.5294117647058824
VTR,0.0010443540886309409,0.006665539587073749,"EnhancedDirectionPredictionModel(
  (lstm): LSTM(8, 64, num_layers=3, batch_first=True, dropout=0.2)
  (dropout): Dropout(p=0.2, inplace=False)
  (attention): Linear(in_features=64, out_features=1, bias=True)
  (fc1): Linear(in_features=64, out_features=32, bias=True)
  (fc2): Linear(in_features=32, out_features=2, bias=True)
  (leaky_relu): LeakyReLU(negative_slope=0.01)
  (softmax): Softmax(dim=1)
)","[('delta_overnight', 'VTR'), ('avg_return_5d', 'VTR'), ('price_location_5d', 'VTR'), ('avg_std_20d', 'VTR'), ('avg_range_5d', 'VTR'), ('price_to_ma_5d', 'VTR'), ('delta_range', 'VTR'), ('avg_volume_5d', 'VTR')]",0.65,0.5327102803738317,0.6944444444444444
VTRS,0.00035805919116304946,0.007139898945422857,"EnhancedDirectionPredictionModel(
  (lstm): LSTM(8, 64, num_layers=3, batch_first=True, dropout=0.2)
  (dropout): Dropout(p=0.2, inplace=False)
  (attention): Linear(in_features=64, out_features=1, bias=True)
  (fc1): Linear(in_features=64, out_features=32, bias=True)
  (fc2): Linear(in_features=32, out_features=2, bias=True)
  (leaky_relu): LeakyReLU(negative_slope=0.01)
  (softmax): Softmax(dim=1)
)","[('avg_range_20d', 'VTRS'), ('avg_std_20d', 'VTRS'), ('avg_std_60d', 'VTRS'), ('avg_range_60d', 'VTRS'), ('delta_overnight', 'VTRS'), ('delta_intraday', 'VTRS'), ('avg_return_60d', 'VTRS'), ('delta_open', 'VTRS')]",0.65,0.5794392523364486,0.7
VZ,-0.000257245693007245,0.005952843821952076,"EnhancedDirectionPredictionModel(
  (lstm): LSTM(8, 64, num_layers=3, batch_first=True, dropout=0.2)
  (dropout): Dropout(p=0.2, inplace=False)
  (attention): Linear(in_features=64, out_features=1, bias=True)
  (fc1): Linear(in_features=64, out_features=32, bias=True)
  (fc2): Linear(in_features=32, out_features=2, bias=True)
  (leaky_relu): LeakyReLU(negative_slope=0.01)
  (softmax): Softmax(dim=1)
)","[('delta_range', 'VZ'), ('delta_volume', 'VZ'), ('avg_volume_20d', 'VZ'), ('avg_return_60d', 'VZ'), ('avg_std_60d', 'VZ'), ('delta_high', 'VZ'), ('avg_range_20d', 'VZ'), ('delta_open', 'VZ')]",0.65,0.4392523364485981,0.46296296296296297
WAB,4.835322210187941e-07,0.007639425059766316,"EnhancedDirectionPredictionModel(
  (lstm): LSTM(8, 64, num_layers=3, batch_first=True, dropout=0.2)
  (dropout): Dropout(p=0.2, inplace=False)
  (attention): Linear(in_features=64, out_features=1, bias=True)
  (fc1): Linear(in_features=64, out_features=32, bias=True)
  (fc2): Linear(in_features=32, out_features=2, bias=True)
  (leaky_relu): LeakyReLU(negative_slope=0.01)
  (softmax): Softmax(dim=1)
)","[('avg_return_5d', 'WAB'), ('price_to_ma_20d', 'WAB'), ('price_to_ma_60d', 'WAB'), ('avg_return_60d', 'WAB'), ('price_to_ma_5d', 'WAB'), ('price_location_60d', 'WAB'), ('price_location_20d', 'WAB'), ('avg_return_20d', 'WAB')]",0.65,0.48598130841121495,0.5294117647058824
WAT,0.0,0.008849339943460783,"EnhancedDirectionPredictionModel(
  (lstm): LSTM(8, 64, num_layers=3, batch_first=True, dropout=0.2)
  (dropout): Dropout(p=0.2, inplace=False)
  (attention): Linear(in_features=64, out_features=1, bias=True)
  (fc1): Linear(in_features=64, out_features=32, bias=True)
  (fc2): Linear(in_features=32, out_features=2, bias=True)
  (leaky_relu): LeakyReLU(negative_slope=0.01)
  (softmax): Softmax(dim=1)
)","[('delta_intraday', 'WAT'), ('price_to_ma_5d', 'WAT'), ('avg_return_5d', 'WAT'), ('price_to_ma_20d', 'WAT'), ('price_location_5d', 'WAT'), ('return', 'WAT'), ('delta_volume', 'WAT'), ('price_location_20d', 'WAT')]",0.65,0.5046728971962616,0.0
WBA,0.0,0.01165525032308262,"EnhancedDirectionPredictionModel(
  (lstm): LSTM(8, 64, num_layers=3, batch_first=True, dropout=0.2)
  (dropout): Dropout(p=0.2, inplace=False)
  (attention): Linear(in_features=64, out_features=1, bias=True)
  (fc1): Linear(in_features=64, out_features=32, bias=True)
  (fc2): Linear(in_features=32, out_features=2, bias=True)
  (leaky_relu): LeakyReLU(negative_slope=0.01)
  (softmax): Softmax(dim=1)
)","[('price_location_60d', 'WBA'), ('price_location_5d', 'WBA'), ('avg_volume_20d', 'WBA'), ('delta_intraday', 'WBA'), ('delta_overnight', 'WBA'), ('avg_volume_60d', 'WBA'), ('price_to_ma_60d', 'WBA'), ('avg_volume_5d', 'WBA')]",0.65,0.5420560747663551,0.0
WBD,-0.0007612190605702527,0.012069088836723843,"EnhancedDirectionPredictionModel(
  (lstm): LSTM(8, 64, num_layers=3, batch_first=True, dropout=0.2)
  (dropout): Dropout(p=0.2, inplace=False)
  (attention): Linear(in_features=64, out_features=1, bias=True)
  (fc1): Linear(in_features=64, out_features=32, bias=True)
  (fc2): Linear(in_features=32, out_features=2, bias=True)
  (leaky_relu): LeakyReLU(negative_slope=0.01)
  (softmax): Softmax(dim=1)
)","[('avg_volume_60d', 'WBD'), ('avg_volume_20d', 'WBD'), ('avg_range_60d', 'WBD'), ('avg_std_60d', 'WBD'), ('avg_volume_5d', 'WBD'), ('price_to_ma_60d', 'WBD'), ('avg_return_60d', 'WBD'), ('avg_return_20d', 'WBD')]",0.65,0.4392523364485981,0.45454545454545453
WDAY,-0.00021912369450956894,0.008374707355802112,"EnhancedDirectionPredictionModel(
  (lstm): LSTM(8, 64, num_layers=3, batch_first=True, dropout=0.2)
  (dropout): Dropout(p=0.2, inplace=False)
  (attention): Linear(in_features=64, out_features=1, bias=True)
  (fc1): Linear(in_features=64, out_features=32, bias=True)
  (fc2): Linear(in_features=32, out_features=2, bias=True)
  (leaky_relu): LeakyReLU(negative_slope=0.01)
  (softmax): Softmax(dim=1)
)","[('avg_return_20d', 'WDAY'), ('delta_volume', 'WDAY'), ('delta_low', 'WDAY'), ('price_to_ma_20d', 'WDAY'), ('delta_overnight', 'WDAY'), ('avg_volume_60d', 'WDAY'), ('price_to_ma_60d', 'WDAY'), ('avg_volume_20d', 'WDAY')]",0.65,0.45794392523364486,0.4
WDC,0.002352932637699207,0.01227695326089306,"EnhancedDirectionPredictionModel(
  (lstm): LSTM(8, 64, num_layers=3, batch_first=True, dropout=0.2)
  (dropout): Dropout(p=0.2, inplace=False)
  (attention): Linear(in_features=64, out_features=1, bias=True)
  (fc1): Linear(in_features=64, out_features=32, bias=True)
  (fc2): Linear(in_features=32, out_features=2, bias=True)
  (leaky_relu): LeakyReLU(negative_slope=0.01)
  (softmax): Softmax(dim=1)
)","[('avg_volume_60d', 'WDC'), ('avg_std_20d', 'WDC'), ('avg_std_60d', 'WDC'), ('avg_range_20d', 'WDC'), ('delta_range', 'WDC'), ('avg_volume_20d', 'WDC'), ('price_to_ma_60d', 'WDC'), ('avg_range_60d', 'WDC')]",0.65,0.5700934579439252,0.6046511627906976
WEC,0.0,0.0054374727820254015,"EnhancedDirectionPredictionModel(
  (lstm): LSTM(8, 64, num_layers=3, batch_first=True, dropout=0.2)
  (dropout): Dropout(p=0.2, inplace=False)
  (attention): Linear(in_features=64, out_features=1, bias=True)
  (fc1): Linear(in_features=64, out_features=32, bias=True)
  (fc2): Linear(in_features=32, out_features=2, bias=True)
  (leaky_relu): LeakyReLU(negative_slope=0.01)
  (softmax): Softmax(dim=1)
)","[('delta_open', 'WEC'), ('delta_overnight', 'WEC'), ('avg_std_20d', 'WEC'), ('avg_volume_20d', 'WEC'), ('avg_return_60d', 'WEC'), ('avg_return_20d', 'WEC'), ('delta_volume', 'WEC'), ('price_to_ma_60d', 'WEC')]",0.65,0.48598130841121495,0.0
WELL,0.0009198005123660812,0.006855825259960239,"EnhancedDirectionPredictionModel(
  (lstm): LSTM(8, 64, num_layers=3, batch_first=True, dropout=0.2)
  (dropout): Dropout(p=0.2, inplace=False)
  (attention): Linear(in_features=64, out_features=1, bias=True)
  (fc1): Linear(in_features=64, out_features=32, bias=True)
  (fc2): Linear(in_features=32, out_features=2, bias=True)
  (leaky_relu): LeakyReLU(negative_slope=0.01)
  (softmax): Softmax(dim=1)
)","[('price_to_ma_5d', 'WELL'), ('delta_intraday', 'WELL'), ('delta_low', 'WELL'), ('avg_volume_5d', 'WELL'), ('price_location_5d', 'WELL'), ('avg_return_5d', 'WELL'), ('delta_open', 'WELL'), ('return', 'WELL')]",0.65,0.5233644859813084,0.6222222222222222
WFC,0.0005723726019277699,0.007540004126413992,"EnhancedDirectionPredictionModel(
  (lstm): LSTM(8, 64, num_layers=3, batch_first=True, dropout=0.2)
  (dropout): Dropout(p=0.2, inplace=False)
  (attention): Linear(in_features=64, out_features=1, bias=True)
  (fc1): Linear(in_features=64, out_features=32, bias=True)
  (fc2): Linear(in_features=32, out_features=2, bias=True)
  (leaky_relu): LeakyReLU(negative_slope=0.01)
  (softmax): Softmax(dim=1)
)","[('avg_volume_20d', 'WFC'), ('delta_overnight', 'WFC'), ('avg_return_5d', 'WFC'), ('return', 'WFC'), ('price_to_ma_5d', 'WFC'), ('price_location_5d', 'WFC'), ('avg_std_20d', 'WFC'), ('price_to_ma_60d', 'WFC')]",0.65,0.5700934579439252,0.59375
WM,0.0007963281497458335,0.00487460532257416,"EnhancedDirectionPredictionModel(
  (lstm): LSTM(8, 64, num_layers=3, batch_first=True, dropout=0.2)
  (dropout): Dropout(p=0.2, inplace=False)
  (attention): Linear(in_features=64, out_features=1, bias=True)
  (fc1): Linear(in_features=64, out_features=32, bias=True)
  (fc2): Linear(in_features=32, out_features=2, bias=True)
  (leaky_relu): LeakyReLU(negative_slope=0.01)
  (softmax): Softmax(dim=1)
)","[('avg_std_20d', 'WM'), ('delta_range', 'WM'), ('delta_overnight', 'WM'), ('delta_low', 'WM'), ('avg_std_5d', 'WM'), ('avg_range_60d', 'WM'), ('avg_volume_20d', 'WM'), ('avg_return_60d', 'WM')]",0.65,0.5046728971962616,0.603448275862069
WMB,0.001592009566235667,0.007822855008045911,"EnhancedDirectionPredictionModel(
  (lstm): LSTM(8, 64, num_layers=3, batch_first=True, dropout=0.2)
  (dropout): Dropout(p=0.2, inplace=False)
  (attention): Linear(in_features=64, out_features=1, bias=True)
  (fc1): Linear(in_features=64, out_features=32, bias=True)
  (fc2): Linear(in_features=32, out_features=2, bias=True)
  (leaky_relu): LeakyReLU(negative_slope=0.01)
  (softmax): Softmax(dim=1)
)","[('avg_range_20d', 'WMB'), ('avg_range_5d', 'WMB'), ('price_to_ma_60d', 'WMB'), ('delta_intraday', 'WMB'), ('avg_return_5d', 'WMB'), ('price_to_ma_5d', 'WMB'), ('avg_return_60d', 'WMB'), ('price_location_5d', 'WMB')]",0.65,0.5233644859813084,0.5507246376811594
WMT,0.0013099239704774657,0.007030443683890535,"EnhancedDirectionPredictionModel(
  (lstm): LSTM(8, 64, num_layers=3, batch_first=True, dropout=0.2)
  (dropout): Dropout(p=0.2, inplace=False)
  (attention): Linear(in_features=64, out_features=1, bias=True)
  (fc1): Linear(in_features=64, out_features=32, bias=True)
  (fc2): Linear(in_features=32, out_features=2, bias=True)
  (leaky_relu): LeakyReLU(negative_slope=0.01)
  (softmax): Softmax(dim=1)
)","[('delta_overnight', 'WMT'), ('delta_range', 'WMT'), ('avg_volume_20d', 'WMT'), ('delta_low', 'WMT'), ('avg_range_20d', 'WMT'), ('delta_open', 'WMT'), ('avg_volume_5d', 'WMT'), ('avg_range_5d', 'WMT')]",0.65,0.4766355140186916,0.5128205128205128
WRB,0.000990434828425071,0.006835123729919167,"EnhancedDirectionPredictionModel(
  (lstm): LSTM(8, 64, num_layers=3, batch_first=True, dropout=0.2)
  (dropout): Dropout(p=0.2, inplace=False)
  (attention): Linear(in_features=64, out_features=1, bias=True)
  (fc1): Linear(in_features=64, out_features=32, bias=True)
  (fc2): Linear(in_features=32, out_features=2, bias=True)
  (leaky_relu): LeakyReLU(negative_slope=0.01)
  (softmax): Softmax(dim=1)
)","[('price_to_ma_20d', 'WRB'), ('avg_return_5d', 'WRB'), ('price_to_ma_5d', 'WRB'), ('price_to_ma_60d', 'WRB'), ('avg_return_20d', 'WRB'), ('price_location_60d', 'WRB'), ('price_location_20d', 'WRB'), ('delta_low', 'WRB')]",0.65,0.48598130841121495,0.59375
WSM,-0.00020803605453580912,0.010619372931535132,"EnhancedDirectionPredictionModel(
  (lstm): LSTM(8, 64, num_layers=3, batch_first=True, dropout=0.2)
  (dropout): Dropout(p=0.2, inplace=False)
  (attention): Linear(in_features=64, out_features=1, bias=True)
  (fc1): Linear(in_features=64, out_features=32, bias=True)
  (fc2): Linear(in_features=32, out_features=2, bias=True)
  (leaky_relu): LeakyReLU(negative_slope=0.01)
  (softmax): Softmax(dim=1)
)","[('delta_volume', 'WSM'), ('delta_range', 'WSM'), ('avg_volume_60d', 'WSM'), ('avg_std_60d', 'WSM'), ('delta_overnight', 'WSM'), ('delta_low', 'WSM'), ('return', 'WSM'), ('avg_range_60d', 'WSM')]",0.65,0.4953271028037383,0.52
WST,5.013504346291443e-05,0.00850552746929293,"EnhancedDirectionPredictionModel(
  (lstm): LSTM(8, 64, num_layers=3, batch_first=True, dropout=0.2)
  (dropout): Dropout(p=0.2, inplace=False)
  (attention): Linear(in_features=64, out_features=1, bias=True)
  (fc1): Linear(in_features=64, out_features=32, bias=True)
  (fc2): Linear(in_features=32, out_features=2, bias=True)
  (leaky_relu): LeakyReLU(negative_slope=0.01)
  (softmax): Softmax(dim=1)
)","[('delta_open', 'WST'), ('avg_return_20d', 'WST'), ('delta_overnight', 'WST'), ('avg_return_5d', 'WST'), ('delta_high', 'WST'), ('delta_low', 'WST'), ('price_to_ma_5d', 'WST'), ('price_to_ma_60d', 'WST')]",0.65,0.514018691588785,0.48148148148148145
WTW,0.0,0.0051351517555999265,"EnhancedDirectionPredictionModel(
  (lstm): LSTM(8, 64, num_layers=3, batch_first=True, dropout=0.2)
  (dropout): Dropout(p=0.2, inplace=False)
  (attention): Linear(in_features=64, out_features=1, bias=True)
  (fc1): Linear(in_features=64, out_features=32, bias=True)
  (fc2): Linear(in_features=32, out_features=2, bias=True)
  (leaky_relu): LeakyReLU(negative_slope=0.01)
  (softmax): Softmax(dim=1)
)","[('price_location_5d', 'WTW'), ('price_location_20d', 'WTW'), ('delta_open', 'WTW'), ('delta_high', 'WTW'), ('delta_low', 'WTW'), ('price_to_ma_20d', 'WTW'), ('price_to_ma_5d', 'WTW'), ('delta_overnight', 'WTW')]",0.65,0.514018691588785,0.0
WY,0.0,0.006698643995590036,"EnhancedDirectionPredictionModel(
  (lstm): LSTM(8, 64, num_layers=3, batch_first=True, dropout=0.2)
  (dropout): Dropout(p=0.2, inplace=False)
  (attention): Linear(in_features=64, out_features=1, bias=True)
  (fc1): Linear(in_features=64, out_features=32, bias=True)
  (fc2): Linear(in_features=32, out_features=2, bias=True)
  (leaky_relu): LeakyReLU(negative_slope=0.01)
  (softmax): Softmax(dim=1)
)","[('avg_return_5d', 'WY'), ('delta_high', 'WY'), ('avg_volume_5d', 'WY'), ('delta_low', 'WY'), ('price_location_5d', 'WY'), ('price_to_ma_5d', 'WY'), ('avg_std_60d', 'WY'), ('return', 'WY')]",0.65,0.48598130841121495,0.0
WYNN,0.0,0.009877047571464513,"EnhancedDirectionPredictionModel(
  (lstm): LSTM(8, 64, num_layers=3, batch_first=True, dropout=0.2)
  (dropout): Dropout(p=0.2, inplace=False)
  (attention): Linear(in_features=64, out_features=1, bias=True)
  (fc1): Linear(in_features=64, out_features=32, bias=True)
  (fc2): Linear(in_features=32, out_features=2, bias=True)
  (leaky_relu): LeakyReLU(negative_slope=0.01)
  (softmax): Softmax(dim=1)
)","[('delta_range', 'WYNN'), ('delta_volume', 'WYNN'), ('avg_volume_20d', 'WYNN'), ('avg_volume_5d', 'WYNN'), ('avg_std_20d', 'WYNN'), ('avg_range_20d', 'WYNN'), ('avg_std_60d', 'WYNN'), ('avg_std_5d', 'WYNN')]",0.65,0.5233644859813084,0.0
XEL,-0.0001365781720206162,0.005754367632543855,"EnhancedDirectionPredictionModel(
  (lstm): LSTM(8, 64, num_layers=3, batch_first=True, dropout=0.2)
  (dropout): Dropout(p=0.2, inplace=False)
  (attention): Linear(in_features=64, out_features=1, bias=True)
  (fc1): Linear(in_features=64, out_features=32, bias=True)
  (fc2): Linear(in_features=32, out_features=2, bias=True)
  (leaky_relu): LeakyReLU(negative_slope=0.01)
  (softmax): Softmax(dim=1)
)","[('avg_std_20d', 'XEL'), ('avg_std_60d', 'XEL'), ('avg_range_20d', 'XEL'), ('avg_return_60d', 'XEL'), ('avg_range_60d', 'XEL'), ('avg_volume_60d', 'XEL'), ('avg_volume_5d', 'XEL'), ('price_to_ma_60d', 'XEL')]",0.65,0.4766355140186916,0.6666666666666666
XOM,0.0005715156180439401,0.006079064061275986,"EnhancedDirectionPredictionModel(
  (lstm): LSTM(8, 64, num_layers=3, batch_first=True, dropout=0.2)
  (dropout): Dropout(p=0.2, inplace=False)
  (attention): Linear(in_features=64, out_features=1, bias=True)
  (fc1): Linear(in_features=64, out_features=32, bias=True)
  (fc2): Linear(in_features=32, out_features=2, bias=True)
  (leaky_relu): LeakyReLU(negative_slope=0.01)
  (softmax): Softmax(dim=1)
)","[('avg_range_5d', 'XOM'), ('avg_range_20d', 'XOM'), ('avg_std_60d', 'XOM'), ('avg_range_60d', 'XOM'), ('avg_std_5d', 'XOM'), ('delta_overnight', 'XOM'), ('avg_std_20d', 'XOM'), ('avg_volume_5d', 'XOM')]",0.65,0.5046728971962616,0.5555555555555556
XYL,1.6668008538436369e-06,0.006264257196100863,"EnhancedDirectionPredictionModel(
  (lstm): LSTM(8, 64, num_layers=3, batch_first=True, dropout=0.2)
  (dropout): Dropout(p=0.2, inplace=False)
  (attention): Linear(in_features=64, out_features=1, bias=True)
  (fc1): Linear(in_features=64, out_features=32, bias=True)
  (fc2): Linear(in_features=32, out_features=2, bias=True)
  (leaky_relu): LeakyReLU(negative_slope=0.01)
  (softmax): Softmax(dim=1)
)","[('delta_overnight', 'XYL'), ('delta_volume', 'XYL'), ('price_location_5d', 'XYL'), ('avg_std_60d', 'XYL'), ('avg_std_5d', 'XYL'), ('avg_volume_20d', 'XYL'), ('avg_volume_5d', 'XYL'), ('delta_open', 'XYL')]",0.65,0.4953271028037383,0.46153846153846156
YUM,0.0009152757724306847,0.006236292263477521,"EnhancedDirectionPredictionModel(
  (lstm): LSTM(8, 64, num_layers=3, batch_first=True, dropout=0.2)
  (dropout): Dropout(p=0.2, inplace=False)
  (attention): Linear(in_features=64, out_features=1, bias=True)
  (fc1): Linear(in_features=64, out_features=32, bias=True)
  (fc2): Linear(in_features=32, out_features=2, bias=True)
  (leaky_relu): LeakyReLU(negative_slope=0.01)
  (softmax): Softmax(dim=1)
)","[('avg_return_5d', 'YUM'), ('price_location_5d', 'YUM'), ('avg_return_60d', 'YUM'), ('delta_intraday', 'YUM'), ('price_to_ma_60d', 'YUM'), ('price_location_20d', 'YUM'), ('price_location_60d', 'YUM'), ('avg_range_5d', 'YUM')]",0.65,0.6074766355140186,0.6410256410256411
ZBH,-0.0010756169424623561,0.005817693067000096,"EnhancedDirectionPredictionModel(
  (lstm): LSTM(8, 64, num_layers=3, batch_first=True, dropout=0.2)
  (dropout): Dropout(p=0.2, inplace=False)
  (attention): Linear(in_features=64, out_features=1, bias=True)
  (fc1): Linear(in_features=64, out_features=32, bias=True)
  (fc2): Linear(in_features=32, out_features=2, bias=True)
  (leaky_relu): LeakyReLU(negative_slope=0.01)
  (softmax): Softmax(dim=1)
)","[('avg_volume_60d', 'ZBH'), ('price_to_ma_20d', 'ZBH'), ('delta_range', 'ZBH'), ('price_to_ma_60d', 'ZBH'), ('avg_return_60d', 'ZBH'), ('avg_range_5d', 'ZBH'), ('price_location_60d', 'ZBH'), ('avg_return_20d', 'ZBH')]",0.65,0.38317757009345793,0.3793103448275862
ZBRA,0.0024092976342241935,0.009490471629742887,"EnhancedDirectionPredictionModel(
  (lstm): LSTM(8, 64, num_layers=3, batch_first=True, dropout=0.2)
  (dropout): Dropout(p=0.2, inplace=False)
  (attention): Linear(in_features=64, out_features=1, bias=True)
  (fc1): Linear(in_features=64, out_features=32, bias=True)
  (fc2): Linear(in_features=32, out_features=2, bias=True)
  (leaky_relu): LeakyReLU(negative_slope=0.01)
  (softmax): Softmax(dim=1)
)","[('delta_volume', 'ZBRA'), ('avg_std_5d', 'ZBRA'), ('delta_low', 'ZBRA'), ('avg_volume_5d', 'ZBRA'), ('delta_overnight', 'ZBRA'), ('delta_range', 'ZBRA'), ('avg_range_5d', 'ZBRA'), ('price_location_20d', 'ZBRA')]",0.65,0.5887850467289719,0.5641025641025641
ZTS,-0.0007410253353994678,0.007057643884170662,"EnhancedDirectionPredictionModel(
  (lstm): LSTM(8, 64, num_layers=3, batch_first=True, dropout=0.2)
  (dropout): Dropout(p=0.2, inplace=False)
  (attention): Linear(in_features=64, out_features=1, bias=True)
  (fc1): Linear(in_features=64, out_features=32, bias=True)
  (fc2): Linear(in_features=32, out_features=2, bias=True)
  (leaky_relu): LeakyReLU(negative_slope=0.01)
  (softmax): Softmax(dim=1)
)","[('avg_volume_20d', 'ZTS'), ('avg_volume_60d', 'ZTS'), ('delta_high', 'ZTS'), ('avg_return_5d', 'ZTS'), ('delta_range', 'ZTS'), ('price_to_ma_5d', 'ZTS'), ('delta_open', 'ZTS'), ('price_location_5d', 'ZTS')]",0.65,0.4953271028037383,0.5333333333333333
